AudioReaction/wakeword_m.pt (torch, 358104 bytes, 7 tensors)

weight f4 [40]
0	0x3f802fd4	1.0014596
1	0x3f803051	1.0014745
2	0x3f7fb0b5	0.9987901
3	0x3f80313f	1.0015029
4	0x3f7fab56	0.9987081
5	0x3f7fa19b	0.99855965
6	0x3f7fa459	0.9986015
7	0x3f800db5	1.0004183
8	0x3f8015ad	1.0006615
9	0x3f7feac3	0.9996759
10	0x3f80032f	1.0000972
11	0x3f802bf7	1.0013417
12	0x3f7fb038	0.99878263
13	0x3f7fa55c	0.99861693
14	0x3f802c2b	1.0013479
15	0x3f8031d5	1.0015208
16	0x3f80306c	1.0014777
17	0x3f802b10	1.0013142
18	0x3f8006a4	1.0002027
19	0x3f802b15	1.0013148
20	0x3f8009ba	1.0002968
21	0x3f800c3b	1.0003732
22	0x3f7fd09f	0.99927706
23	0x3f7fb6be	0.9988822
24	0x3f8009e8	1.0003023
25	0x3f802a04	1.0012822
26	0x3f801f0d	1.0009476
27	0x3f8029ca	1.0012753
28	0x3f7fad3c	0.9987371
29	0x3f7fa10b	0.9985511
30	0x3f7f9f70	0.9985266
31	0x3f802e75	1.0014178
32	0x3f8017e1	1.0007287
33	0x3f802e1c	1.0014071
34	0x3f7fa530	0.9986143
35	0x3f802f8b	1.0014509
36	0x3f7fa0ec	0.9985492
37	0x3f8016ae	1.0006921
38	0x3f801c09	1.0008556
39	0x3f802477	1.0011128

bias f4 [40]
0	0x3ac7cbea	0.0015243266
1	0x3a62b879	0.00086487044
2	0x3ab0e7d9	0.001349683
3	0xbac938af	-0.0015351976
4	0x3aad8415	0.0013238216
5	0x3ab7c1c6	0.0014019541
6	0x3aa58e47	0.0012630903
7	0x3aba24ba	0.0014201619
8	0xba9596ea	-0.0011412774
9	0x3ac055cc	0.0014674007
10	0xbac1d542	-0.0014788287
11	0x3ac6bc30	0.0015162285
12	0xbabaeaaa	-0.0014260609
13	0xbabfae3f	-0.0014624073
14	0x3ac18c83	0.0014766607
15	0x3ac92f5a	0.0015349195
16	0x3ac6620c	0.0015135421
17	0x3ac2e7af	0.0014870072
18	0x3ac2831d	0.00148401
19	0xbaa5d45a	-0.0012651787
20	0xbac007fc	-0.0014650817
21	0x3ab159e1	0.0013530814
22	0xba80a9e0	-0.0009816252
23	0xbabc8c7e	-0.0014385132
24	0xbab14190	-0.0013523567
25	0xba8196f4	-0.0009886906
26	0x3abc541e	0.0014368331
27	0x3ac4e1b1	0.0015020875
28	0xbabf7d34	-0.0014609457
29	0xbabc4b30	-0.0014365669
30	0x3abf18ed	0.0014579572
31	0xbac23677	-0.0014817257
32	0xba1ea214	-0.0006051373
33	0xbac5e7dc	-0.0015099007
34	0x3abe07c8	0.0014498169
35	0xbac2cb84	-0.0014861678
36	0xbac5882d	-0.0015070491
37	0xbac35d79	-0.0014905176
38	0xbac5939a	-0.0015073896
39	0x3a8d5321	0.0010782221

weight_ih_l0 f4 [512, 40]
0	0x3d3489e7	0.044076826
1	0xbd25ad84	-0.04044868
2	0xbc804888	-0.015659586
3	0x3d2fd96e	0.042931966
4	0xbda77f40	-0.08178568
5	0x3d5eb584	0.054372326
6	0xbc892c41	-0.016744735
7	0x3d35f46b	0.04442255
8	0x3c618226	0.01376394
9	0xbc1daf07	-0.009624249
10	0x3ccf1b4d	0.025281573
11	0x3b42a043	0.0029697574
12	0x3cfc4b9e	0.030797776
13	0xbd12d3a0	-0.035846353
14	0xbc004d0e	-0.007830871
15	0xbc1a7e57	-0.009429536
16	0x3c39d5ea	0.011342505
17	0xbad08751	-0.0015909468
18	0x3d9c6454	0.076363236
19	0x3cd68139	0.026184665
20	0xbd0bb39a	-0.03410683
21	0xbd5970e4	-0.053086177
22	0xbc856d16	-0.016287368
23	0xbd21ab8a	-0.039470233
24	0xbce8472a	-0.028354246
25	0x3b44a1d9	0.0030003695
26	0x3d535300	0.051592827
27	0x3d3f26f2	0.046668
28	0xbdb3c739	-0.08778233
29	0x3d5ad7f5	0.05342861
30	0x3cd5ac71	0.026083203
31	0x3dae395e	0.08507036
32	0x3d74c448	0.0597575
33	0xbda1edd4	-0.0790669
34	0xbda95ff6	-0.08270256
35	0xbd29d9a6	-0.04146733
36	0x3da1ca33	0.078998946
37	0xbc5d9a0b	-0.013525496
38	0x3d19a054	0.037506416
39	0xbd2dae7f	-0.04240274
40	0x3db49ae9	0.08818609
41	0xbd13116a	-0.03590528
42	0x3d84aae5	0.06477908
43	0xb9ededb9	-0.0004538128
44	0xbd44dbd9	-0.048061226
45	0x3d33ea62	0.043924697
46	0xbd46531a	-0.048419096
47	0x3ccd759f	0.0250805
48	0xbcdd455f	-0.027010618
49	0xbc33bb3d	-0.010969934
50	0xbdb0f455	-0.08640353
51	0xbd270c2a	-0.040783085
52	0x3d4aad7f	0.049481865
53	0xbca3b850	-0.019985348
54	0x3db68c9a	0.08913536
55	0x3d942533	0.07233658
56	0xbb2c42fa	-0.0026285038
57	0xbd6bff3c	-0.057616457
58	0x3d59726c	0.053087637
59	0x3ceb8171	0.028748246
60	0xbd69b5ec	-0.05705826
61	0x3d655b26	0.05599513
62	0x3d61992d	0.05507772
63	0x3da38891	0.07985032
64	0xbd4561b6	-0.048188888
65	0xbc5735bf	-0.013135373
66	0xb9b3d455	-0.0003429974
67	0x3c6b9be3	0.014380428
68	0xbd865387	-0.065589
69	0xbd7ad039	-0.061233733
70	0x3d42b4d6	0.04753574
71	0xbca155e5	-0.019694278
72	0x3d351078	0.04420516
73	0x3bb176e1	0.005415783
74	0x3cf7580a	0.030193347
75	0x3ca9f6c6	0.020747554
76	0x3d08dc0e	0.033412986
77	0x3d37b6e0	0.044852138
78	0xbda4b7d8	-0.08042878
79	0x3d3c236a	0.04593221
80	0xbd8017bf	-0.06254529
81	0xbd8b9066	-0.06814651
82	0x3bdf0dc3	0.0068070604
83	0xbc60c0ee	-0.013717873
84	0x3d5870c4	0.052841917
85	0xbd4cb9bc	-0.049981818
86	0xbd9e4beb	-0.07729324
87	0x3d86b96b	0.065783344
88	0xbc3e8182	-0.011627557
89	0x3d50bf8e	0.05096393
90	0x3ce07a2c	0.027402006
91	0xbd8aaa40	-0.06770754
92	0x3c85c0fb	0.016327372
93	0x3ca3f246	0.020012986
94	0xbd6e9639	-0.058248732
95	0xbd30a870	-0.043129385
96	0x3cfe3ef2	0.031035874
97	0x3c83f6d7	0.016108913
98	0xbd1fb58a	-0.03899149
99	0xbce29b82	-0.027662043
100	0x3da531c9	0.080661364
101	0xbc79f353	-0.015255767
102	0x3d46c016	0.04852303
103	0x3d20c3d4	0.039249256
104	0xbd69b2c5	-0.057055254
105	0xbd9c34f8	-0.076272905
106	0x3daae7f7	0.08345025
107	0x3b708744	0.0036701718
108	0x3d727c09	0.05920032
109	0x3c8ba2de	0.017045435
110	0x3ce3f854	0.027828373
111	0x3d88f326	0.06687002
112	0x3dad197c	0.084521264
113	0xbd6b7ce5	-0.057492156
114	0x3c205446	0.009785717
115	0x3d8564b4	0.06513348
116	0x3d812c61	0.06307293
117	0x3d5d3446	0.05400493
118	0xbd84c18c	-0.06482229
119	0xbd84c8d9	-0.06483621
120	0xbd60a1dc	-0.05484186
121	0x3c22acf2	0.009928929
122	0x3db7112c	0.08938822
123	0xbd5f62af	-0.05453747
124	0x3d45fe90	0.048338473
125	0xbd48404e	-0.04888945
126	0xbda8a62d	-0.082348205
127	0xbca34541	-0.019930484
128	0x3d55a9e3	0.05216397
129	0x3da60851	0.08107055
130	0xbd66e370	-0.056369245
131	0x3c91c5d1	0.017794522
132	0x3d9945fa	0.0748405
133	0x3d6ab16c	0.05729811
134	0x3d5bd126	0.053666256
135	0x3d7b71fe	0.06138801
136	0x3d5f8403	0.054569256
137	0x3cb1d05d	0.0217058
138	0xbd7d554d	-0.061848927
139	0xbd9adcc7	-0.07561641
140	0xbd2b8ef9	-0.041884396
141	0xbc3d700e	-0.01156236
142	0xbd63c6c1	-0.05560947
143	0x3d0655f9	0.032796834
144	0x3ceb80e7	0.028747989
145	0xbc9891b1	-0.018624159
146	0x3d10f444	0.0353892
147	0x3cebc00e	0.028778102
148	0x3d5e9e8f	0.054350432
149	0x3d77b856	0.06047853
150	0xbce9c4ac	-0.028536163
151	0x3db3cd82	0.08779432
152	0xbc0ff8fb	-0.008787389
153	0xbacee88b	-0.0015785856
154	0xbda7e4b7	-0.08197921
155	0xbd630531	-0.055424873
156	0xbd4db137	-0.050217833
157	0xbd153fc5	-0.03643777
158	0x3d8393ae	0.06424652
159	0xbce4833c	-0.027894609
160	0xbd87c579	-0.06629462
161	0x3d0614ee	0.032734804
162	0x3cf297e0	0.029613435
163	0x3d6e8733	0.058234405
164	0xbd35a569	-0.0443472
165	0x3c9bf9a0	0.019039929
166	0xbd001b24	-0.031275883
167	0xbc9d25f2	-0.019183133
168	0xbd8eb148	-0.069674075
169	0xbd287ec8	-0.041136533
170	0xbcded596	-0.027201455
171	0x3d153d23	0.036435258
172	0x3c75284d	0.014963222
173	0x3cac5a34	0.021039106
174	0x3db537f3	0.08848562
175	0x3dad96a6	0.084759995
176	0x3d716399	0.058932874
177	0x3b04b0e1	0.002024703
178	0xbd7ea5c6	-0.062169813
179	0x3d8bcf1b	0.068266116
180	0xbcbc926d	-0.02301904
181	0xbc01d889	-0.007925161
182	0xbd9d9e97	-0.07696264
183	0xbc8e322d	-0.01735791
184	0xbd640df0	-0.055677354
185	0x3da75d3d	0.08172081
186	0xbd9eb768	-0.07749826
187	0xbd8fa04b	-0.07012995
188	0xbb82fb52	-0.003997245
189	0xbd42bf8d	-0.04754596
190	0x3d066672	0.032812543
191	0xbd06614e	-0.03280764
192	0xbd268a02	-0.04065896
193	0x3bcb9d52	0.0062138224
194	0x3d85755e	0.06516527
195	0xbd79f9fb	-0.061029416
196	0x3d2d31d1	0.042283837
197	0x3d6b08d3	0.057381462
198	0x3db11cfa	0.08648105
199	0xbd7cdd0c	-0.061734244
200	0x3ca9f379	0.02074598
201	0xbd87b92e	-0.06627117
202	0x3d9b3a8a	0.07579525
203	0xbd08559b	-0.033284765
204	0x3d5c5ad6	0.053797565
205	0x3b74717f	0.0037299094
206	0xbbc02586	-0.005863848
207	0xbb242774	-0.002504793
208	0x3c7a1074	0.015262712
209	0x3d24ed4c	0.040265366
210	0x3c5c1b97	0.013434312
211	0x3ce1d448	0.027567044
212	0xbda3751a	-0.0798132
213	0x3d82396f	0.06358611
214	0x3da01f71	0.07818497
215	0x3d97d015	0.074127354
216	0x3d883a92	0.066517964
217	0xbd803f15	-0.06262032
218	0xbd03857d	-0.032109726
219	0x3d9ea842	0.077469364
220	0xbd884177	-0.066531114
221	0x3da59224	0.08084515
222	0xbd8db05d	-0.06918404
223	0xbd80e52a	-0.062937096
224	0x3d2c9d85	0.04214241
225	0xbd835931	-0.06413496
226	0xbcadc4cc	-0.021212004
227	0x3d818895	0.06324879
228	0x3d8d538a	0.069006994
229	0x3da9db01	0.08293725
230	0xbc952b4a	-0.018209118
231	0xbd8e34b5	-0.06943647
232	0x3db03de8	0.08605558
233	0xbc9dd162	-0.01926488
234	0xbd15cbcc	-0.03657131
235	0x3caf5cff	0.021406649
236	0xbd80b9c1	-0.0628543
237	0x3d699684	0.05702831
238	0x3d61ed49	0.055157933
239	0xbd919c94	-0.07109943
240	0xbd979456	-0.0740134
241	0xbc140e27	-0.009036577
242	0x3d1cccca	0.03828124
243	0xba9454ea	-0.001131681
244	0xbd31d582	-0.043416508
245	0x3b4d4c6b	0.0031326066
246	0xbda73db8	-0.08166069
247	0xbd7a87b1	-0.06116456
248	0xbd6bb063	-0.057541262
249	0x3d9225b9	0.07136101
250	0x3d9c8f6b	0.07644542
251	0xbcfe5738	-0.031047449
252	0x3b229627	0.0024808736
253	0x3d1b98b4	0.037987426
254	0x3c1acf15	0.009448786
255	0xbd3b5a37	-0.045740332

weight_hh_l0 f4 [512, 128]
0	0xbdb445fb	-0.0880241
1	0xbd8be088	-0.06829935
2	0x3adf088a	0.0017016095
3	0x3c333f93	0.01094045
4	0xbd0a2d98	-0.033734888
5	0xbd186fd7	-0.037216034
6	0xbd45e070	-0.048309743
7	0x3d58a297	0.052889433
8	0x3d8b76c2	0.06809761
9	0x3d8ec465	0.06971053
10	0xbd46356c	-0.04839079
11	0x3d427a86	0.04748013
12	0xbd18b64e	-0.037283234
13	0x3da1a2d8	0.07892388
14	0xbaf7e499	-0.0018912732
15	0xbda278ef	-0.079332225
16	0x3d41d5ac	0.047322914
17	0xbbdb1544	-0.0066858847
18	0xbd98a78c	-0.07453832
19	0xbd63c3a8	-0.055606514
20	0xbc286eb9	-0.010280305
21	0xbd2d5704	-0.042319313
22	0xbd9e63f7	-0.077339105
23	0x3dadefa8	0.084929764
24	0x3d228e2d	0.03968637
25	0xbd727f47	-0.059203412
26	0xbd029130	-0.031876743
27	0xbd908884	-0.07057288
28	0xbca54f87	-0.020179523
29	0x3da893e5	0.08231334
30	0xbd279770	-0.040915906
31	0x3d9afcad	0.07567725
32	0xbc7b1928	-0.015325822
33	0xbacbce57	-0.0015549165
34	0x3db550b1	0.08853281
35	0x3d76d77e	0.060264103
36	0x3d249017	0.040176477
37	0x3d07e2cd	0.03317528
38	0x3b0ec7d9	0.00217866
39	0xbcf2dda2	-0.029646698
40	0x3c2313e6	0.009953475
41	0x3c6b7956	0.01437219
42	0x3d09f9bd	0.033685435
43	0x3d921268	0.07132417
44	0xbd8db65c	-0.06919548
45	0xbbafde70	-0.005367093
46	0xbd9e3d6b	-0.07726558
47	0x3cacfb73	0.021115994
48	0xbbf30509	-0.0074163717
49	0xbd5597b1	-0.052146617
50	0xbdb2b5b9	-0.08726067
51	0x3cc825c9	0.02443208
52	0xbd801893	-0.06254687
53	0x3bc433f6	0.0059876395
54	0x3d604017	0.05474862
55	0xbce13ea2	-0.027495686
56	0x3a6a498f	0.00089373527
57	0xbcb76243	-0.022385722
58	0xbcf29ef9	-0.02961682
59	0x3d9f0bed	0.077659465
60	0x3db71d2b	0.0894111
61	0x3db2e214	0.08734527
62	0xbc2c48fb	-0.010515447
63	0xbd83cf96	-0.06436078
64	0x3c025633	0.007955122
65	0x3c9da077	0.019241555
66	0x3c64d5ae	0.013966961
67	0x3d09339d	0.033496488
68	0xbd2c81de	-0.04211604
69	0xbd26688c	-0.040627047
70	0x3d4979e6	0.049188517
71	0x3cabcabe	0.020970698
72	0xbd36ddf1	-0.044645254
73	0xbd7b160e	-0.06130033
74	0x3d9e46b2	0.07728328
75	0x3db20c69	0.08693773
76	0xbbb405c0	-0.0054938495
77	0x3d4afe73	0.049559068
78	0xbd9f6379	-0.07782645
79	0xbcd45f9e	-0.0259245
80	0xbd9e882f	-0.07740819
81	0xbda13e6e	-0.07873236
82	0xbc152946	-0.009104079
83	0x3d9ad8be	0.075608715
84	0xbc83c0c5	-0.01608313
85	0xbd87bd79	-0.06627936
86	0x3c30a728	0.010782041
87	0xbcce4927	-0.025181366
88	0xbce48a3a	-0.027897943
89	0xbd7b9fd0	-0.061431706
90	0x3cb56616	0.022143405
91	0xbd42b98b	-0.04754023
92	0xbd1aa122	-0.037751324
93	0x3bfaccea	0.007653822
94	0xbd62d88a	-0.05538229
95	0x3d06e53b	0.032933455
96	0xbd8fdafc	-0.0702419
97	0x3cc499dd	0.023999149
98	0x3d280892	0.0410238
99	0x3d930a54	0.07179704
100	0x3d0e05d1	0.034673516
101	0x3d7cd488	0.061726123
102	0xbcfdcbb2	-0.030980919
103	0x3cd95415	0.026529351
104	0xbd7f8616	-0.062383734
105	0xbda89e8b	-0.08233365
106	0x3d309445	0.04311015
107	0xbd8190ae	-0.063264236
108	0x3b5e7dc6	0.0033949479
109	0x3d117271	0.03550953
110	0x3da8d3df	0.08243536
111	0x3cb007cd	0.021488095
112	0xbd6ed998	-0.058312982
113	0x3be4bff9	0.0069808927
114	0xbd89a702	-0.06721307
115	0xbd65ba80	-0.056086063
116	0xbd11b6b5	-0.035574634
117	0x3d51dc99	0.05123577
118	0xbd947289	-0.07248408
119	0x3da71698	0.08158606
120	0x3ce87bc4	0.028379329
121	0xbd623a7e	-0.055231564
122	0xbdad28a7	-0.084550194
123	0x3d1f0832	0.038826175
124	0xbd13767b	-0.036001664
125	0x3d579961	0.052636508
126	0xbd2fe15b	-0.042939525
127	0x3cbca8be	0.023029681
128	0xbd35c9a7	-0.044381764
129	0xbd2be493	-0.041966032
130	0xbd32692e	-0.04355734
131	0xbb354895	-0.002766167
132	0xbcbd2455	-0.023088614
133	0xbcd6962f	-0.02619466
134	0x3d594dca	0.0530527
135	0xbd2d6b3a	-0.042338587
136	0x3d868d70	0.06569946
137	0x3d9dd7b3	0.07707157
138	0x3d21c537	0.03949472
139	0xbd6787a5	-0.056525845
140	0x3d8d867f	0.06910419
141	0xbcf27781	-0.029598
142	0x3db3f8a1	0.087876566
143	0x3d510e10	0.0510388
144	0x3d5b167f	0.05348825
145	0xbc7f4c61	-0.015582175
146	0x3d629afe	0.055323593
147	0x3dadd0f9	0.08487124
148	0x3c8f8bde	0.017522749
149	0x3daf02d5	0.08545462
150	0x3d913d90	0.0709182
151	0xbc911cf3	-0.017714
152	0x3cc26090	0.023727685
153	0x3d3e8845	0.046516676
154	0xbd1772ed	-0.036974836
155	0xbd343e5a	-0.044004776
156	0x3d38af86	0.045089267
157	0xbd67dc80	-0.05660677
158	0xbc0c6060	-0.008567899
159	0xbd5be46c	-0.053684637
160	0x3d8db95f	0.06920122
161	0x3d85a18d	0.06524954
162	0x3d6f29a0	0.058389306
163	0xbcf0c12a	-0.029388983
164	0x3d203384	0.03911163
165	0xbcb1ab5d	-0.021688158
166	0xbc8791e9	-0.016549068
167	0xbd913ed1	-0.070920594
168	0xbc65ec58	-0.0140333995
169	0xbd833160	-0.06405902
170	0x3b706998	0.0036684033
171	0x3d0c6b54	0.034282044
172	0x3d8205e3	0.06348779
173	0xbc72d8e8	-0.014822222
174	0xbd291c7b	-0.041286927
175	0x3dadbd38	0.08483356
176	0x3d636f7c	0.05552624
177	0x3cedf8f7	0.02904938
178	0x3d8b37d5	0.067977585
179	0x3c2cf84a	0.010557244
180	0xbd77969d	-0.06044637
181	0xbd9aa02b	-0.07550081
182	0x3bca0f52	0.006166377
183	0xbd213b42	-0.039363153
184	0xbc98fccf	-0.018675236
185	0x3c968ea8	0.01837857
186	0x3cf56cd7	0.029959125
187	0x3d02e331	0.031954948
188	0x3d6bce5c	0.057569847
189	0xbd4146d0	-0.047186673
190	0x3c784069	0.015152075
191	0xbc99effa	-0.018791188
192	0xbd03c480	-0.03216982
193	0x3d72c05a	0.059265472
194	0x3d855a46	0.06511359
195	0xbd9ebffb	-0.07751461
196	0x3ca1796a	0.019711215
197	0xbd834b4f	-0.06410848
198	0x3d937dae	0.07201706
199	0x3dae181d	0.08500693
200	0x3d77654d	0.060399342
201	0x3d321a94	0.043482378
202	0xbd342cfd	-0.043988217
203	0xbd24799f	-0.04015505
204	0xbcb36211	-0.021897348
205	0x3d422d96	0.047406755
206	0xbd5377ad	-0.051627804
207	0xbca3a576	-0.019976359
208	0x3a1bed9d	0.0005948188
209	0x3d059230	0.03261012
210	0xbcd704b8	-0.026247367
211	0xbd979c45	-0.07402853
212	0x3d8a4c4a	0.06752832
213	0xbbd47cbd	-0.0064845965
214	0xbd8b0a0e	-0.06789027
215	0xbd4b67b9	-0.049659465
216	0xbb11fe3f	-0.0022276787
217	0x3c9d6c9f	0.019216834
218	0x3cb76972	0.022389147
219	0xbdb7929d	-0.08963511
220	0x3d0ce465	0.0343975
221	0x3c97c9b0	0.01852879
222	0x3c277047	0.01021964
223	0xbd2461e9	-0.040132437
224	0xbd9a4700	-0.075330734
225	0x3d9adec8	0.075620234
226	0x3d515ea1	0.051115636
227	0x3d9deaaf	0.07710778
228	0xbc8f2bcc	-0.017476939
229	0x3cf475eb	0.029841384
230	0xbcdf5d5c	-0.027266197
231	0xbcfed628	-0.031107977
232	0x3da7f4bf	0.082009785
233	0xbdac24a5	-0.08405427
234	0xbcc72806	-0.024311077
235	0x3d88aad0	0.06673205
236	0xbd8d88c7	-0.06910854
237	0x3d5ac8da	0.053414203
238	0xbcd4e6f9	-0.025989043
239	0x3d39af14	0.045332983
240	0xbd2e78f8	-0.042595834
241	0x3c7288f5	0.014803161
242	0x3c09da5c	0.008413877
243	0x3c588f0f	0.013217702
244	0x3c2a1c57	0.010382733
245	0x3d7122c7	0.058871057
246	0xbd664ff4	-0.056228593
247	0xbcc8734a	-0.024469037
248	0xbda8d0c3	-0.08242943
249	0x3c556a2d	0.013025803
250	0xbc1f179f	-0.009710222
251	0xbcfb3f66	-0.03066988
252	0xbb8b4d6c	-0.0042511728
253	0xbba59e1c	-0.0050542485
254	0xbd9f24c1	-0.07770682
255	0x3ce6d64e	0.02817836

bias_ih_l0 f4 [512]
0	0x3c5d7aa3	0.013518008
1	0x3c99f12f	0.018791763
2	0xbd2ed010	-0.042678893
3	0xbc40b628	-0.011762179
4	0xbda805a6	-0.08204202
5	0x3bafe55a	0.005367917
6	0xbcf8c847	-0.030368937
7	0x3d1d3e6c	0.03838961
8	0xbd438c4c	-0.04774122
9	0x3d3a9828	0.045555264
10	0x3d9acfd9	0.07559175
11	0xbd4ae4be	-0.04953455
12	0x3d329a1e	0.04360401
13	0x3b8e8c92	0.0043502534
14	0xbdb266ab	-0.087109886
15	0xbdb2e29f	-0.08734631
16	0xbd89e1cd	-0.06732521
17	0xbd696940	-0.05698514
18	0x3ce542e7	0.027986003
19	0xbd1f3570	-0.03886932
20	0xbd0b8846	-0.034065507
21	0xbd98f87a	-0.07469268
22	0x3caedfdc	0.021346979
23	0x3da122a6	0.07867937
24	0xbd068319	-0.03283987
25	0xbd2f0fa2	-0.042739518
26	0xbd285405	-0.041095752
27	0x3ca89345	0.020578036
28	0xbd5a7351	-0.05333263
29	0x3d56da24	0.05245413
30	0xbd96ec47	-0.07369285
31	0xbd4a3b08	-0.049372703
32	0x3dac7682	0.08421041
33	0x3bb0da6a	0.0053971307
34	0x3c91b305	0.017785558
35	0xbd839985	-0.06425766
36	0x3d65af92	0.05607564
37	0xbda6da2b	-0.08147081
38	0xba5e95b6	-0.00084909366
39	0x3d802fb1	0.062590964
40	0x3c0f3bcc	0.008742284
41	0xbc2803ef	-0.010254844
42	0xbcf1ba50	-0.029507786
43	0x3d6affff	0.057373043
44	0x3d6240b5	0.05523749
45	0x3c899324	0.016793795
46	0xbd50b864	-0.0509571
47	0x3da79fb7	0.0818476
48	0xbd8d59d1	-0.06901897
49	0xbd7a4310	-0.061099112
50	0xbda99643	-0.08280613
51	0x3d922bbf	0.0713725
52	0xbc3c5937	-0.01149588
53	0xbd72baf1	-0.059260312
54	0x3d8d3ec7	0.068967395
55	0x3af72d6a	0.0018858139
56	0x3d84fe71	0.06493843
57	0x3ca5bf34	0.020232774
58	0xbc795d79	-0.0152200395
59	0x3c2a4251	0.010391788
60	0xbd3b85a8	-0.04578176
61	0x3d34cb06	0.04413893
62	0x3da15644	0.07877782
63	0xbda7a5d0	-0.08185923
64	0xbdac7bc9	-0.08422048
65	0x3d9b6f0d	0.07589541
66	0xbd445f9a	-0.047942735
67	0xbb72c025	-0.0037040797
68	0x3da1832b	0.078863464
69	0x3d12f5df	0.035879012
70	0x3d60944e	0.054828934
71	0x3cd7ac75	0.026327351
72	0x3d0e1456	0.034687363
73	0x3d1ff5c1	0.03905273
74	0x3d0b5f7c	0.034026608
75	0xbd29496c	-0.041329786
76	0xbc9d79a5	-0.019223044
77	0x3d88a376	0.06671803
78	0xbc8a87eb	-0.016910514
79	0x3d9dad8c	0.07699117
80	0xbc9ab41a	-0.018884707
81	0xbd919ce5	-0.071100034
82	0x3d6cf53a	0.057851054
83	0xbd5cc8ed	-0.053902555
84	0x3d2b1595	0.04176863
85	0x3d21c538	0.039494723
86	0x3c8faa77	0.017537339
87	0xbdad3c5c	-0.08458778
88	0xbda0bf3a	-0.078489736
89	0xbdae38ca	-0.085069254
90	0x3daeb147	0.08529907
91	0xbbaf7f2a	-0.0053557353
92	0xbb24b7af	-0.0025133898
93	0xbc91fb95	-0.017820159
94	0xbd377bb1	-0.044795696
95	0x3c962e35	0.01833258
96	0xbd3522a2	-0.04422248
97	0xba97e6a2	-0.001158912
98	0x3c7a19f9	0.015264981
99	0xbd51979b	-0.051169973
100	0x3daf5062	0.08560254
101	0xbdb4dea4	-0.08831528
102	0xbb878bc4	-0.0041365344
103	0x3be34a1c	0.0069363248
104	0x3c9de3b3	0.019273615
105	0x3d370df3	0.044691037
106	0x3b105215	0.002202158
107	0x3dac164d	0.08402691
108	0x3d2d4fdb	0.042312484
109	0x3c15ee24	0.009151015
110	0xbdacce2c	-0.08437762
111	0x3ce056a0	0.027385056
112	0xbd4c7083	-0.049911987
113	0x3c8f5b2b	0.017499527
114	0x3d831fcf	0.064025514
115	0x3bd2e4c1	0.006435961
116	0xbd2de21c	-0.042451963
117	0xbc62b30c	-0.013836633
118	0xbd3c5b28	-0.04598537
119	0x3d493b7a	0.049128987
120	0x3d064f30	0.032790363
121	0x3b6397a9	0.0034727848
122	0xbcc3e7ca	-0.023914237
123	0x3d29dcfc	0.041470513
124	0x3bb56395	0.0055355527
125	0xbd2e775a	-0.04259429
126	0xbd6471d2	-0.05577261
127	0xbce04bcc	-0.027379893
128	0x3d598a0b	0.053110164
129	0x3d7ce26c	0.06173937
130	0xbda46caf	-0.08028542
131	0x3c716d15	0.01473548
132	0xbcba4e8a	-0.022742528
133	0x3d817fa9	0.06323177
134	0xbcc1ba0b	-0.023648283
135	0x3d840844	0.06446889
136	0x3d9add31	0.0756172
137	0xbd3436b7	-0.043997493
138	0xbd0f19ef	-0.03493684
139	0x3dae698a	0.08516224
140	0x3d55f622	0.052236684
141	0xbda1e094	-0.07904163
142	0xbad5d099	-0.0016312777
143	0x3d96ce56	0.07363574
144	0xbd825f6b	-0.06365856
145	0x3d8d1ade	0.0688989
146	0x3d4807ba	0.048835494
147	0x3d6e737f	0.058215614
148	0x3d11afdb	0.0355681
149	0xbccbe1c9	-0.024887936
150	0x3d88f469	0.066872425
151	0xbd55e612	-0.052221365
152	0x3d816a29	0.063190766
153	0xbd15f6a4	-0.036612168
154	0xbda8fbbe	-0.08251141
155	0x3d6ca823	0.057777535
156	0xbd3ac250	-0.045595467
157	0xbda3fb9f	-0.08006977
158	0x3d4f06d5	0.050543625
159	0x3c483c45	0.012221401
160	0xbd58c9a9	-0.052926693
161	0xbca9ac7d	-0.020712132
162	0x3d73383a	0.059379794
163	0x3d7dc119	0.06195173
164	0x3da9c415	0.08289353
165	0x3d9c481b	0.076309405
166	0xbcaecfa2	-0.021339241
167	0xbc2421da	-0.0100178365
168	0xbda58935	-0.08082811
169	0xb9c6c57c	-0.0003791264
170	0x3d852972	0.06502046
171	0xbc2e2407	-0.010628707
172	0xbd2cc0d9	-0.0421761
173	0xbc328e59	-0.010898196
174	0x3d9e79df	0.07738089
175	0x3d305410	0.04304892
176	0xba33047d	-0.0006828977
177	0xbd0845f4	-0.033269837
178	0x3ca68c41	0.02033055
179	0xbd660ea5	-0.05616631
180	0x3b062277	0.002046732
181	0xbd9888bd	-0.07447956
182	0x3ce2ea25	0.02769954
183	0x3c43383d	0.011915264
184	0x3d26553c	0.04060863
185	0xbbc6c335	-0.006065751
186	0x3da0dfc5	0.07855181
187	0x3d3ea61b	0.04654513
188	0x3d3a0bd6	0.045421444
189	0x3c5551c9	0.013019987
190	0xbdae69ca	-0.085162714
191	0x3d7e5681	0.062094215
192	0xbd04a72e	-0.032385997
193	0xbd96c452	-0.07361664
194	0x3bef762e	0.0073077893
195	0x3d0eb13e	0.034837
196	0xbd0e1a70	-0.03469318
197	0x3cae25f3	0.02125833
198	0xbd800e51	-0.06252731
199	0x3c33620b	0.010948668
200	0xbd3ff557	-0.046864834
201	0x3d92caae	0.07167564
202	0xbd9ff9c6	-0.078113124
203	0x3d39bce3	0.045346152
204	0x3bd638d5	0.0065375366
205	0xbd72c9fc	-0.05927466
206	0xbd2137e3	-0.03935994
207	0x3db219b7	0.08696311
208	0x3d902668	0.070385754
209	0xbd662796	-0.056190096
210	0xbb723a6c	-0.0036961092
211	0xbc7e563c	-0.01552349
212	0x3dae8fae	0.085234985
213	0x3c92b2d9	0.017907547
214	0x3daf6fdd	0.08566258
215	0xbd792055	-0.06082185
216	0xbd2e6e54	-0.042585686
217	0xbd4db5f1	-0.05022234
218	0xbc239d19	-0.0099861855
219	0x3cc4ba65	0.024014661
220	0x3c85639d	0.01628285
221	0x3c5c3d28	0.013442315
222	0x3cb68938	0.022282228
223	0x3c8a6602	0.016894344
224	0x3d347d7f	0.044064995
225	0xbc800074	-0.015625216
226	0x3d324baf	0.04352921
227	0x3da77d4c	0.08178195
228	0xbd246f43	-0.04014517
229	0x3d3af0e9	0.045639906
230	0xbd97ccf4	-0.074121386
231	0x3c318e06	0.010837084
232	0xbd826700	-0.06367302
233	0xbd8b4516	-0.068002865
234	0x3ca6e9bd	0.020375127
235	0x3d60614b	0.054780286
236	0xbda28901	-0.07936288
237	0x3aaf2846	0.0013363443
238	0x3d126a6e	0.03574603
239	0x39cdd87e	0.00039261946
240	0xbb65d387	-0.0035068707
241	0xbd6a6c7f	-0.057232376
242	0xbd48fc09	-0.049068484
243	0xbd9e5e84	-0.07732871
244	0xbb78aa2c	-0.0037943227
245	0xbd5523ed	-0.052036215
246	0x3cbc15b1	0.022959562
247	0x3d514bb0	0.05109757
248	0xbd734766	-0.059394263
249	0x3d35874e	0.04431849
250	0x3d6d6f07	0.057967212
251	0x3d7b2e79	0.061323617
252	0xbc85c07a	-0.016327132
253	0xbc0d8d79	-0.008639687
254	0x3d4862f0	0.04892248
255	0xbd1af071	-0.03782696

bias_hh_l0 f4 [512]
0	0x3cdb24a9	0.02675088
1	0xbd3ce4fd	-0.046116818
2	0x3d787f8c	0.060668513
3	0xbc17601a	-0.009239221
4	0x3d9c1ca1	0.07622648
5	0xbd8b05c9	-0.06788213
6	0xbdb7a73c	-0.08967444
7	0xbd66d395	-0.056354124
8	0x3d93a570	0.07209289
9	0xbd755c77	-0.059902634
10	0xbd98ffd9	-0.07470674
11	0xbd0555db	-0.03255258
12	0x3d7ed984	0.062219158
13	0x3ce6381b	0.028102925
14	0x3d645e60	0.055754066
15	0xbc99c75f	-0.018771825
16	0x3daede59	0.08538503
17	0xbb907075	-0.004407937
18	0xbd3ed1b9	-0.046586726
19	0xbd7b78b0	-0.061394393
20	0xbd5adfc7	-0.053436067
21	0x3d90b3f2	0.07065572
22	0xbdb2aae3	-0.08724
23	0x3da3ab53	0.07991662
24	0xbce26bbe	-0.027639266
25	0x3da14261	0.07873989
26	0xbd34309c	-0.04399167
27	0xbd05cf3d	-0.03266834
28	0x3d3d8655	0.046270687
29	0x3d942d33	0.072351836
30	0x3d89ffa7	0.06738215
31	0x3cbba6eb	0.022906741
32	0xbd5b998b	-0.053613227
33	0xbc4e6def	-0.012599452
34	0x3b355ced	0.0027673796
35	0x3db20a2f	0.086933486
36	0xbd966b23	-0.073446535
37	0xbd49f8ba	-0.04930947
38	0x3d6e4141	0.0581677
39	0xbcc2c315	-0.023774663
40	0xbd18ee13	-0.03733642
41	0x3c1b52b8	0.009480171
42	0xbd625f41	-0.055266622
43	0xbccf4ac7	-0.025304211
44	0x3d31f8a2	0.043450005
45	0xbd778bc0	-0.06043601
46	0xbd5862f4	-0.052828744
47	0x3c9e3e50	0.019316822
48	0xba538cad	-0.00080699736
49	0xbca63c28	-0.020292357
50	0x3c12e2a0	0.008965164
51	0x3dad6e00	0.084682465
52	0xbd4fc6d8	-0.05072674
53	0xbd1dcf55	-0.038527805
54	0xbce19fff	-0.027542112
55	0x3d0001c2	0.031251676
56	0x3d557676	0.052114926
57	0x3db4ee29	0.08834488
58	0x3c521d45	0.012824361
59	0x3cbbe3ca	0.022935767
60	0x3d177d25	0.03698458
61	0x3d509dcd	0.05093174
62	0x3da96028	0.082702935
63	0xbd643138	-0.055711
64	0xbda3f730	-0.08006132
65	0xbd388895	-0.04505213
66	0xbc6b0821	-0.0143452
67	0xbda68f57	-0.08132809
68	0x3d582e80	0.05277872
69	0xbcbdde78	-0.02317737
70	0xbc2ed744	-0.0106714405
71	0xbd531383	-0.05153228
72	0x3c5baa9d	0.013407377
73	0x3ca057c6	0.019573104
74	0xbd0e834f	-0.034793194
75	0x3cd3ad98	0.025839612
76	0xbd069120	-0.032853246
77	0x3d5c2a76	0.05375143
78	0xbd82c7a5	-0.063857354
79	0x3da6e463	0.0814903
80	0x3db4f44b	0.08835658
81	0xbd8c820c	-0.06860742
82	0xbd11eab0	-0.035624206
83	0xbd281dbd	-0.041043986
84	0xbd105481	-0.03523684
85	0x3d2f593c	0.04280971
86	0xbd80a77c	-0.06281945
87	0xbd65f0e2	-0.056137927
88	0x3d670874	0.056404546
89	0xbd48e006	-0.04904177
90	0xbd2e58be	-0.0425651
91	0x3c5c4a3d	0.013445434
92	0xbda9d02e	-0.0829166
93	0xbd23713b	-0.039902907
94	0x3cf2c645	0.029635558
95	0xbcca3158	-0.024681732
96	0xbd9c682d	-0.076370575
97	0x3d8ba119	0.06817836
98	0xbd243255	-0.040087063
99	0x3d882916	0.066484615
100	0x3d67df72	0.05660958
101	0xbd944de9	-0.07241423
102	0xbd360d4a	-0.044446267
103	0x3c6ca3c1	0.014443339
104	0x3d8b3610	0.06797421
105	0x3c370a44	0.011171881
106	0x3d0f4809	0.034980807
107	0xbc8620d8	-0.016373083
108	0x3daea9af	0.08528458
109	0x3c6b8d63	0.014376971
110	0x3d377430	0.04478854
111	0xbd197de5	-0.037473578
112	0xbd896533	-0.06708755
113	0x3ca5764c	0.02019801
114	0xbda42d20	-0.080164194
115	0xbc144bbc	-0.00905126
116	0x3d2e1657	0.042501774
117	0x3cdaf7ed	0.026729548
118	0xba5242e1	-0.000802083
119	0xbb4f3b5e	-0.003162108
120	0xbd8efdc7	-0.06981998
121	0xbd563d9b	-0.052304845
122	0x3c9563d1	0.018236073
123	0x3c4217b8	0.011846475
124	0x3d7164f4	0.058934167
125	0x3d0a7749	0.033805165
126	0xbd7d6cb4	-0.061871246
127	0xbd8ad423	-0.06778743
128	0x3d07d1f0	0.033159196
129	0xbb65a800	-0.0035042763
130	0x3b6936f8	0.0035585742
131	0xbc96f95d	-0.018429453
132	0x3c13f1d0	0.009029821
133	0x3d94f4f2	0.07273282
134	0x3d49d0c7	0.04927137
135	0x3cd857d1	0.026409062
136	0xbd2b7aa7	-0.041865017
137	0xbd6f07ae	-0.058356933
138	0xbd0b0b20	-0.033946157
139	0x3d655820	0.055992246
140	0x3d576256	0.052584015
141	0x3d9f81af	0.07788407
142	0x3d437953	0.047723126
143	0xbc6e4c0c	-0.014544498
144	0x3da9d385	0.08292297
145	0xbd33b458	-0.04387316
146	0x3d992982	0.0747862
147	0xb9939b08	-0.00028153532
148	0xbc1e2f01	-0.009654761
149	0x3c141f1f	0.009040623
150	0xbcd7075d	-0.026248628
151	0x3d857a91	0.06517518
152	0x3da1486b	0.07875141
153	0xbd7ddd56	-0.06197866
154	0x3c41e6ea	0.011834839
155	0xbca4642e	-0.0200673
156	0x3da7a19e	0.08185123
157	0xbd22fe60	-0.039793372
158	0x3d788360	0.060672164
159	0xbd46b091	-0.04850823
160	0x3d82b0f8	0.0638141
161	0x3cd7469e	0.02627879
162	0x3b78a242	0.003793851
163	0xbbf86b6f	-0.0075811665
164	0x3db2c18e	0.08728324
165	0xbd9a0d94	-0.07522121
166	0x3d92a334	0.07160035
167	0xbd76464b	-0.06012563
168	0x3d1789aa	0.03699652
169	0x3b081392	0.0020763618
170	0x3ba37ae4	0.004989015
171	0x3d7cbc96	0.061703287
172	0x3d53a34a	0.051669396
173	0xbd8d78fa	-0.0690784
174	0xbb9e8ae3	-0.004838334
175	0xbd1c850f	-0.038212832
176	0x3da18475	0.07886592
177	0x3d7f5afa	0.06234262
178	0xbd5cbaed	-0.053889204
179	0x3d8f1809	0.06987006
180	0xbdb725ef	-0.08942782
181	0xbdab6c6f	-0.083702914
182	0x3cc0fb6f	0.023557393
183	0x3c12bd05	0.008956199
184	0xbd993612	-0.07481016
185	0xbd312717	-0.04325017
186	0x3b96ecb5	0.0046058544
187	0x3c8e9f69	0.017409997
188	0x3b9c3910	0.0047675446
189	0xbd05e177	-0.032685723
190	0xbd8aa870	-0.06770408
191	0xbc1a5998	-0.009420775
192	0xbd7aacdf	-0.06120002
193	0xbc5403ba	-0.012940342
194	0xbcc28fa3	-0.023750132
195	0x3d9d7ad4	0.07689443
196	0x3da694b2	0.0813383
197	0xbcd10ec4	-0.025519736
198	0x3d844bad	0.064597465
199	0xbdb4ed10	-0.088342786
200	0x3dab9a1a	0.08379002
201	0xbda71686	-0.08158593
202	0xbd254c8d	-0.040356208
203	0xbcf3d0f9	-0.029762732
204	0x3ce93176	0.028465968
205	0xbd502d00	-0.050824165
206	0x3bc6cb2c	0.0060667004
207	0x3d9a1a49	0.07524545
208	0x3d5c1cc4	0.05373837
209	0x3d9da967	0.076983266
210	0xbd8e16b1	-0.06937922
211	0xbd379a7e	-0.04482507
212	0xba2e6587	-0.0006652702
213	0x3d13eb4e	0.036113076
214	0xbd2963f0	-0.041355073
215	0x3dafabe6	0.08577709
216	0xbd85d6f2	-0.06535138
217	0xbd3a6d3a	-0.045514323
218	0x3d92bfaf	0.07165467
219	0x3d2cf912	0.04222972
220	0x3c467144	0.012111966
221	0xbbd2e5a0	-0.006436065
222	0xbd5b96a2	-0.05361045
223	0x3d9c81dc	0.07641956
224	0x3c653dbb	0.0139917685
225	0xbc3bf8fd	-0.011472938
226	0x3d806d68	0.062708676
227	0xbd060b6f	-0.032725748
228	0xbd21e285	-0.039522666
229	0x3d466a0c	0.048440978
230	0xbd43ed9b	-0.04783402
231	0xbdaecc81	-0.085351
232	0xbdb5299c	-0.08845827
233	0xbcb719b9	-0.022351133
234	0x3d71bbe4	0.059017077
235	0x3d9d9975	0.07695285
236	0x3d3a5e94	0.045500353
237	0xbd83fae8	-0.06444341
238	0x3da9bcf8	0.08287996
239	0x3cd6477f	0.026157139
240	0xbd132a8c	-0.035929248
241	0xbcdaa2f1	-0.026689025
242	0x3d265f40	0.04061818
243	0x3cd3eb8a	0.02586915
244	0x3d95e867	0.07319718
245	0xbc9ad05e	-0.018898185
246	0x3da750ea	0.0816973
247	0xbc838d98	-0.016058728
248	0xbdaeb8cd	-0.08531342
249	0x3cf867e5	0.030322978
250	0xbccbe41f	-0.02488905
251	0xbba062df	-0.004894599
252	0x3c2cf2c5	0.010555928
253	0x3d449660	0.04799497
254	0x3aae6eab	0.0013308128
255	0xbd9c81f8	-0.07641977

weight f4 [1, 128]
0	0xbd95a0d5	-0.07306067
1	0xbcc4b405	-0.024011621
2	0x3d9b14a9	0.075723
3	0x3c94e517	0.018175645
4	0x3bfba029	0.0076790047
5	0xbccfaa56	-0.025349777
6	0x3d707462	0.05870474
7	0x3d6bb581	0.057546142
8	0xbb672251	-0.0035268257
9	0xbd0e3e0b	-0.034727138
10	0xbd561e80	-0.05227518
11	0xbd7e884b	-0.062141698
12	0x3d0381cb	0.032106202
13	0x3da7e4e3	0.081979536
14	0xbd28e9db	-0.041238647
15	0xbcdd7685	-0.027034054
16	0xbd47ed69	-0.048810396
17	0x3d459200	0.04823494
18	0x3d7e1774	0.062034085
19	0xbd8703e8	-0.06592542
20	0x3d76b233	0.060228538
21	0xbd95b150	-0.0730921
22	0xbd41fca2	-0.04736007
23	0xbd0331e3	-0.032029998
24	0xbcd470d5	-0.025932709
25	0xbc63da2e	-0.013906999
26	0x3c484c6f	0.012225254
27	0xbdaa4b5e	-0.083151564
28	0xbdb514f3	-0.08841886
29	0xbafcc2b3	-0.0019284099
30	0x3c639943	0.013891521
31	0x3d8d91ae	0.06912552
32	0xbac331b5	-0.0014892133
33	0x3d9e6225	0.07733563
34	0xbda4d16a	-0.08047755
35	0xbd1734b0	-0.03691548
36	0x3d9de7c5	0.07710222
37	0x3c8c111e	0.017098006
38	0xbd06f9e1	-0.032953147
39	0xbc8994fc	-0.016794674
40	0x3d9e242e	0.077217445
41	0xbd0f3218	-0.034959882
42	0x3c934dad	0.017981375
43	0x3cfca021	0.030838074
44	0x3d47e398	0.048801035
45	0xbdab9130	-0.08377302
46	0x3bf009bf	0.0073253806
47	0x3ca0f40b	0.019647619
48	0x3d910519	0.070810504
49	0x3d569ca9	0.052395497
50	0x3c522fa9	0.012828746
51	0xbcc67da0	-0.024229825
52	0x3d8842c5	0.0665336
53	0x3c13f475	0.009030451
54	0x3b1298c6	0.0022368892
55	0xbc5f17c3	-0.013616505
56	0x3da4ae40	0.08041048
57	0x3d587768	0.05284825
58	0x3cc857ed	0.024455989
59	0x3cece353	0.02891699
60	0x3c883f90	0.016631871
61	0xbd44c296	-0.048037134
62	0x3d1a25f7	0.037633862
63	0x3c54c452	0.01298626
64	0xbd96db2a	-0.07366021
65	0x3d947a42	0.07249881
66	0x3d22c5ff	0.039739605
67	0xbdb31e65	-0.08746032
68	0xbd53aaa5	-0.05167641
69	0xbc97be04	-0.018523224
70	0x3bc15864	0.0059004296
71	0xbda8c3c3	-0.082404636
72	0x3d738d60	0.059460998
73	0x3d8d81cf	0.06909525
74	0x3cab945f	0.020944772
75	0xbd9833e1	-0.0743177
76	0x3db06c17	0.086143665
77	0xbd3feee7	-0.046858694
78	0xbc7748c6	-0.015093034
79	0x3d953571	0.07285584
80	0xbd032558	-0.032018036
81	0xbd04a658	-0.0323852
82	0xbd0ea8dd	-0.03482901
83	0x3da21b20	0.0791533
84	0x3dada30b	0.084783636
85	0x3c8caf95	0.017173568
86	0xbd466182	-0.048432834
87	0xbc74111a	-0.014896655
88	0xbd187394	-0.0372196
89	0x3cae342f	0.021265117
90	0xbdb16fa5	-0.08663873
91	0xbd5e4298	-0.054262727
92	0xbc1c2b12	-0.009531753
93	0x3d287e14	0.041135862
94	0xbc6decbe	-0.014521776
95	0xbda8b5e4	-0.08237818
96	0x3d07eb78	0.033183545
97	0x3bda6176	0.0066644503
98	0x3ceefe45	0.02917398
99	0x3d2cf58e	0.042226367
100	0xbc8b2269	-0.016984181
101	0x3d357417	0.044300165
102	0x3d38ef31	0.045149986
103	0x3d0142bc	0.031557783
104	0xbc0df2e6	-0.0086638685
105	0x3d46daa2	0.04854835
106	0x3b6f42b4	0.0036508264
107	0x3c529658	0.012853228
108	0x3d13daa7	0.036097195
109	0xbda9d180	-0.08291912
110	0xbd86c361	-0.06580234
111	0xbd4ccc30	-0.049999416
112	0x3c4e9910	0.012609735
113	0xbdaba358	-0.08380765
114	0xbc9e7b63	-0.019345945
115	0x3d83034e	0.06397115
116	0xbd81358b	-0.06309041
117	0xbd4ca92b	-0.04996602
118	0x3bef7aed	0.007308355
119	0xbdaab152	-0.083346024
120	0xbd90372f	-0.070417754
121	0x3d531151	0.051530186
122	0x3d99e95c	0.07515213
123	0x3d8ddd72	0.06927003
124	0x3d872adc	0.06599972
125	0x3c1c5159	0.009540879
126	0xbda30e1e	-0.07961677
127	0x3d803dce	0.06261788
