AudioReaction/wakeword.pt (torch, 357559 bytes, 7 tensors)

weight f4 [40]
0	0x3f7b7afa	0.9823452
1	0x3f805a61	1.0027581
2	0x3f812afb	1.0091242
3	0x3f82c43a	1.0216134
4	0x3f80c62b	1.0060476
5	0x3f7ed06b	0.9953677
6	0x3f82a613	1.0206932
7	0x3f832f89	1.0248882
8	0x3f7f932f	0.9983396
9	0x3f7bba7b	0.9833142
10	0x3f811131	1.0083371
11	0x3f82e551	1.0226232
12	0x3f812fac	1.0092673
13	0x3f81a439	1.0128242
14	0x3f8032f2	1.0015547
15	0x3f82affb	1.0209955
16	0x3f849895	1.0359064
17	0x3f81f19b	1.0151857
18	0x3f82aeec	1.0209632
19	0x3f7d1c35	0.98871166
20	0x3f804dc6	1.0023735
21	0x3f82189f	1.0163764
22	0x3f83aa09	1.0286266
23	0x3f82af08	1.0209665
24	0x3f7f8c97	0.998239
25	0x3f7c47d1	0.98547083
26	0x3f818bc7	1.0120782
27	0x3f803084	1.0014806
28	0x3f7ecf72	0.99535286
29	0x3f830246	1.0235069
30	0x3f800005	1.0000006
31	0x3f82a041	1.0205156
32	0x3f848b6b	1.0355047
33	0x3f821621	1.0163003
34	0x3f7ececb	0.9953429
35	0x3f8070ff	1.0034484
36	0x3f817b5b	1.011577
37	0x3f804ef8	1.0024099
38	0x3f815fe6	1.0107391
39	0x3f81c343	1.0137714

bias f4 [40]
0	0xbc51f171	-0.012813912
1	0x3cfc357a	0.030787218
2	0xbbb6e720	-0.0055817515
3	0xbcfeae8f	-0.031089095
4	0x3c71e249	0.014763423
5	0xbbd5b6e6	-0.0065220473
6	0x3cb86a09	0.022511499
7	0x3c62a201	0.01383257
8	0x3ba64216	0.005073796
9	0xbc78af39	-0.015178495
10	0x3c862932	0.016377065
11	0xbbb8d07a	-0.0056400867
12	0x3bacbb0e	0.005271322
13	0xbd1fe22b	-0.03903405
14	0x3cbbbd81	0.022917511
15	0xbc303d5b	-0.010756816
16	0xbc4fd52d	-0.012685102
17	0xbc8034e4	-0.01565022
18	0xbc47d3fd	-0.012196538
19	0xbccb63c1	-0.02482784
20	0xbc921907	-0.0178342
21	0xbc05df67	-0.008170939
22	0xbc22bd26	-0.009932792
23	0xbceaeeeb	-0.028678378
24	0x3b8f63a2	0.004375891
25	0xbc4258e7	-0.011862016
26	0x3cdd5e1f	0.02702242
27	0x3be7e1b4	0.0070764665
28	0x3c5e6561	0.013573975
29	0x3c50f807	0.012754447
30	0xbc22485c	-0.009904947
31	0x3c30339e	0.010754494
32	0x3c86ecd2	0.016470347
33	0x3cada720	0.021197855
34	0x3bfaf865	0.0076590055
35	0xbc8ee878	-0.017444834
36	0x3c9ff565	0.019526193
37	0x3a1dc28f	0.0006018066
38	0xbcac8b02	-0.021062378
39	0x3c135c21	0.008994133

weight_ih_l0 f4 [512, 40]
0	0x3ced1b1a	0.028943587
1	0xbcd76dfb	-0.02629756
2	0xbb3f1874	-0.0029158862
3	0x3d321f6a	0.04348699
4	0xbd81ec09	-0.06343848
5	0x3d770a27	0.060312416
6	0xbaaf8513	-0.00133911
7	0x3d16fce2	0.03686226
8	0x3b99fc03	0.0046992316
9	0xbc15bcc7	-0.009139246
10	0x3d51a5ab	0.051183384
11	0x3c11bc2c	0.008894961
12	0x3ca96ff4	0.020683266
13	0xbd5022d6	-0.050814472
14	0xbc9c2574	-0.019060828
15	0x3a89aae7	0.0010503203
16	0x3c091845	0.008367603
17	0xbc008518	-0.007844232
18	0x3d598214	0.053102568
19	0x3c55441d	0.013016728
20	0xbd16af27	-0.036788132
21	0xbd7ae7e2	-0.061256297
22	0xbc081f45	-0.0083082365
23	0xbd3200c2	-0.043457754
24	0xbc85a135	-0.016312221
25	0x3c477477	0.0121737635
26	0x3d98d5a3	0.07462623
27	0x3d445e20	0.047941327
28	0xbdae07c1	-0.08497573
29	0x3d646c81	0.05576754
30	0x3ce04517	0.027376695
31	0x3da7649a	0.08173485
32	0x3d56cc8c	0.052441165
33	0xbdaeb569	-0.08530695
34	0xbdb970e4	-0.09054735
35	0xbd4f1e1b	-0.05056582
36	0x3d980e42	0.074245945
37	0xbd3d3654	-0.04619439
38	0x3c4ca1d7	0.0124897575
39	0xbd6de16d	-0.05807631
40	0x3da157ec	0.07878098
41	0xbd024220	-0.031801343
42	0x3d95caa4	0.07314041
43	0x3c83e8d1	0.016102226
44	0xbd40ab34	-0.047038272
45	0x3d5a3ac0	0.053278685
46	0xbd89f5bc	-0.06736323
47	0xbc284eef	-0.0102727255
48	0xbd138de0	-0.036023974
49	0xbc63b0f8	-0.013897173
50	0xbdc2c1eb	-0.09509643
51	0xbca74f89	-0.020423668
52	0x3d0fed97	0.035138693
53	0xbc7f60c2	-0.015587034
54	0x3d9f33bf	0.07773542
55	0x3db702ef	0.089361064
56	0x3cc23701	0.023707869
57	0xbd351679	-0.044210885
58	0x3d87efa7	0.06637507
59	0x3cb82be0	0.022481859
60	0xbd5c3ed0	-0.05377084
61	0x3d8d959e	0.06913303
62	0x3d9e56d4	0.07731405
63	0x3dcd02ed	0.10010324
64	0xbd3d0a6d	-0.04615252
65	0xbc1042b9	-0.00880497
66	0xbca5e2f7	-0.020249827
67	0x3c8cd194	0.017189778
68	0xbd8dcd07	-0.069238715
69	0xbda933ed	-0.08261857
70	0x3d87d8d9	0.06633157
71	0xbd2c6a73	-0.042093705
72	0x3c56f69d	0.013120321
73	0xbba5b12e	-0.005056522
74	0x3ca75380	0.020425558
75	0x3d14a08d	0.036285926
76	0x3d27aed6	0.04093822
77	0x3d3d5dec	0.04623215
78	0xbd8f9d2b	-0.07012399
79	0x3d3d5e8d	0.04623275
80	0xbd993f9c	-0.07482836
81	0xbd0dae3f	-0.034590002
82	0x3c89b195	0.01680831
83	0x3b94c30e	0.004539854
84	0x3d71600b	0.058929484
85	0xbd1731e1	-0.036912803
86	0xbd7511d6	-0.059831463
87	0x3da3a897	0.0799114
88	0xbce29e6e	-0.027663436
89	0x3d146b4c	0.03623514
90	0x3bcc1f0e	0.006229288
91	0xbd8e2dbf	-0.06942319
92	0x3adaa768	0.0016681971
93	0x3c2c23c6	0.010506576
94	0xbd639890	-0.055565417
95	0xbd33681a	-0.04380045
96	0x3cf5d878	0.030010447
97	0xbc090cd3	-0.008364874
98	0xbd8c9acc	-0.06865463
99	0xbd1286e2	-0.035773166
100	0x3d8b7785	0.06809906
101	0xbd081c64	-0.0332302
102	0x3d0e787a	0.034782864
103	0x3ccd884e	0.02508941
104	0xbd851aa5	-0.06499223
105	0xbdbb4860	-0.09144664
106	0x3d84addc	0.064784735
107	0xbc26ee7f	-0.010188698
108	0x3d33f6a3	0.043936383
109	0x3c568849	0.013094016
110	0x3c8e6122	0.0173803
111	0x3d68a20a	0.056795157
112	0x3d9594ff	0.073038094
113	0xbda51af6	-0.08061783
114	0xbc325f7b	-0.010887022
115	0x3d44207b	0.04788254
116	0x3d556e54	0.05210717
117	0x3cf1238c	0.029435895
118	0xbdc5398f	-0.09630119
119	0xbdb96636	-0.09052698
120	0xbd81fdcb	-0.06347235
121	0x3cdf8a48	0.027287617
122	0x3dde1fcc	0.108459085
123	0xbd517930	-0.051140964
124	0x3d18224d	0.037142087
125	0xbd1ea54c	-0.038731858
126	0xbdbd0cc6	-0.09230952
127	0xbd507b27	-0.050898697
128	0x3d0effca	0.03491191
129	0x3d990228	0.074711144
130	0xbd8d7fd2	-0.069091454
131	0x3d03bde7	0.032163527
132	0x3d6a812d	0.057252098
133	0x3d4aa07f	0.049469467
134	0x3d35a5f0	0.044347703
135	0x3d9dc5a7	0.07703715
136	0x3d9940d4	0.07483068
137	0x3cff6299	0.031174945
138	0xbd69791a	-0.057000257
139	0xbd98de2d	-0.07464252
140	0xbd0b5c18	-0.034023374
141	0x3ba85c8d	0.005137986
142	0xbd080573	-0.03320832
143	0x3d45a3d2	0.048251934
144	0x3d136f9a	0.035995103
145	0xbc5fb288	-0.013653405
146	0x3cdad6d9	0.026713775
147	0x3cf07337	0.029351814
148	0x3d30bf06	0.043150924
149	0x3d317207	0.043321636
150	0xbcccba34	-0.024991132
151	0x3d8dfc69	0.06932909
152	0xbd05a21d	-0.032625306
153	0xbcbfa965	-0.023396203
154	0xbdbaad97	-0.09115141
155	0xbd55cd5f	-0.05219781
156	0xbd2acf1a	-0.041701414
157	0xbd1a0877	-0.03760573
158	0x3d90bc97	0.07067221
159	0xbccb507d	-0.024818653
160	0xbd6675df	-0.056264754
161	0x3d445016	0.04792794
162	0x3c933032	0.017967317
163	0x3d36df1a	0.04464636
164	0xbd6599cb	-0.05605487
165	0x3b61519b	0.0034380916
166	0xbc8d5e20	-0.017256796
167	0xbc4ee9a8	-0.01262895
168	0xbda4df90	-0.08050454
169	0xbcb07daf	-0.021544306
170	0xbd11b299	-0.035570715
171	0x3cf3c974	0.029759146
172	0x3ce1069a	0.027468968
173	0x3b824d50	0.0039765015
174	0x3ddeb4b7	0.10874312
175	0x3da92f72	0.082610026
176	0x3cf18445	0.029482016
177	0xbca8b968	-0.020596221
178	0xbdb8e13d	-0.09027336
179	0x3da7c7af	0.081923835
180	0xbcc233ca	-0.023706336
181	0xbd1f1c6c	-0.038845465
182	0xbdec39a0	-0.115344286
183	0xbd578439	-0.05261633
184	0xbd80611b	-0.062685214
185	0x3d818ae4	0.063253194
186	0xbd9bc33c	-0.076055974
187	0xbd814d6d	-0.06313596
188	0x3c042668	0.008065797
189	0xbc9e3022	-0.01931006
190	0x3d03a634	0.032140926
191	0xbc499ae0	-0.0123049915
192	0xbc96a2d3	-0.018388188
193	0x3c636422	0.013878854
194	0x3d85bded	0.06530366
195	0xbdc67335	-0.09689943
196	0x3d101887	0.03517964
197	0x3d32813f	0.04358029
198	0x3d6dad77	0.058026757
199	0xbd9189cc	-0.07106361
200	0x3c931211	0.01795295
201	0xbd8e0cfa	-0.06936069
202	0x3d9adb7a	0.07561393
203	0xbcf3bb2c	-0.029752336
204	0x3d1bf38d	0.038074065
205	0x3be1029b	0.0068667657
206	0xbcd2248a	-0.025652189
207	0xbcf2e379	-0.029649483
208	0x3bdc95d7	0.0067317295
209	0x3d0ba258	0.03409037
210	0x3c1005c9	0.008790442
211	0x3d5d21a8	0.053987175
212	0xbdba411d	-0.090944506
213	0x3d9acbda	0.07558413
214	0x3d89e33d	0.067327954
215	0x3dbdf3a8	0.09274989
216	0x3dc8753c	0.09787986
217	0xbd4d3e2f	-0.05010813
218	0xbcae4731	-0.021274181
219	0x3dae6083	0.08514502
220	0xbd4a87d4	-0.049445942
221	0x3dbcbc61	0.09215618
222	0xbd44bfe3	-0.04803456
223	0xbd2688ec	-0.040657923
224	0x3d5ba762	0.053626426
225	0xbd5cf1be	-0.05394148
226	0xbcf54174	-0.029938437
227	0x3d9a99fc	0.075489014
228	0x3d953f6e	0.07287489
229	0x3d95cf40	0.073149204
230	0xbaba65ef	-0.0014221052
231	0xbdaa4435	-0.08313791
232	0x3d89449b	0.067025386
233	0xbcde18ed	-0.027111495
234	0xbd23d743	-0.04000021
235	0x3d22bfb8	0.03973362
236	0xbd516667	-0.05112305
237	0x3d7d3f9f	0.061828252
238	0x3d91fc4c	0.071282
239	0xbd8652b6	-0.065587446
240	0xbdb777f6	-0.089584276
241	0x3aeeab02	0.0018208923
242	0x3d3872db	0.04503141
243	0xbcf9099e	-0.030400094
244	0xbd92ac81	-0.07161809
245	0x3b90ba83	0.004416765
246	0xbdba2d78	-0.09090704
247	0xbdbbb8db	-0.09166118
248	0xbd8535ff	-0.065044396
249	0x3dc4cbc9	0.096091814
250	0x3d9a56ef	0.075361125
251	0xbcb3197e	-0.021862742
252	0x3cca36e5	0.024684379
253	0x3d2c53ae	0.04207199
254	0x3c6c37cc	0.0144176
255	0xbc85453c	-0.016268365

weight_hh_l0 f4 [512, 128]
0	0xbdaf097c	-0.08546731
1	0xbda1324e	-0.07870923
2	0xb7560486	-1.2756447e-05
3	0x3c71060c	0.014710914
4	0xbcd54576	-0.026034098
5	0xbd4798fe	-0.04872989
6	0xbd1caf70	-0.038253248
7	0x3d5f3159	0.05449042
8	0x3d89cc69	0.06728441
9	0x3d98a16c	0.07452664
10	0xbd721961	-0.059106234
11	0x3ce3a641	0.027789237
12	0xbd9cb34a	-0.07651384
13	0x3da25a6c	0.07927403
14	0xbd3149ec	-0.043283388
15	0xbdc089a3	-0.09401252
16	0x3d2b26cf	0.041785058
17	0x3c246c64	0.010035608
18	0xbde00f4d	-0.109404184
19	0xbd566c30	-0.05234927
20	0xbc435e16	-0.011924287
21	0xbd50b967	-0.050958063
22	0xbdbdcdfa	-0.092678025
23	0x3d92963a	0.0715756
24	0x3d278116	0.04089459
25	0xbd65df06	-0.056120895
26	0xbc9c445d	-0.019075567
27	0xbdaca6e1	-0.08430267
28	0xbbe96ba6	-0.0071234284
29	0x3da72e74	0.08163157
30	0xbd2f1255	-0.042742092
31	0x3d9f3135	0.07773057
32	0x3c3fd8cd	0.011709404
33	0xbc361b2c	-0.011114877
34	0x3db1e68f	0.08686554
35	0x3d9e9608	0.0774346
36	0x3cf2bede	0.029632028
37	0x3c375a38	0.011190943
38	0x3b6ffc82	0.0036619012
39	0xbd101207	-0.035173442
40	0x3c7b572d	0.015340609
41	0x3c27a311	0.010231749
42	0x3d2d5cdb	0.042324882
43	0x3d9ec586	0.07752518
44	0xbda20271	-0.07910622
45	0xbac60379	-0.0015107236
46	0xbda007d8	-0.07813996
47	0x3c2947b2	0.010332035
48	0xbbc54126	-0.006019729
49	0xbd4367f9	-0.047706578
50	0xbdab8a93	-0.0837604
51	0x3ca2160e	0.019785907
52	0xbdbe8aec	-0.09303841
53	0x3cc6e40d	0.024278665
54	0x3d653aab	0.055964153
55	0xbd11944f	-0.03554183
56	0x3bb6dafb	0.0055803037
57	0xbca7bf52	-0.02047697
58	0xbc05d7ea	-0.008169154
59	0x3d9a309b	0.07528802
60	0x3da09454	0.07840791
61	0x3dd0229e	0.10162853
62	0xbb0ce298	-0.0021497365
63	0xbd72267e	-0.05911874
64	0x3ae79884	0.0017669355
65	0xb9a819f6	-0.000320628
66	0x3cc307b7	0.02380739
67	0x3d16f28f	0.036852416
68	0xbd4963ec	-0.04916756
69	0xbd5bc508	-0.0536547
70	0x3d3b88f2	0.045784898
71	0x3cad6de9	0.021170573
72	0xbdcf1f1e	-0.10113357
73	0xbd4aa31d	-0.049471963
74	0x3d971714	0.07377449
75	0x3dd8d16a	0.105868176
76	0xbb6cdcb7	-0.0036142298
77	0x3d394578	0.045232266
78	0xbdac0f10	-0.084013104
79	0xbcb437aa	-0.021999199
80	0xbd924e3b	-0.071438275
81	0xbd7687fb	-0.060188275
82	0xbc25e2b8	-0.010124855
83	0x3db39152	0.08767952
84	0xbcced450	-0.025247723
85	0xbd6967fb	-0.05698393
86	0x3c372fd7	0.0111808395
87	0xbd5562c8	-0.05209616
88	0xbd1389bb	-0.036020022
89	0xbd9295e5	-0.07157496
90	0x3c04953e	0.008092223
91	0xbd88bc73	-0.06676569
92	0xbd56da96	-0.052454554
93	0x3ba5b915	0.005057464
94	0xbd5c4404	-0.053775802
95	0x3ca4e70f	0.020129709
96	0xbdcabe7c	-0.09899613
97	0x3c769e42	0.01505238
98	0x3d3a4cdc	0.045483455
99	0x3da0e9e6	0.078571126
100	0x3cdd6568	0.027025893
101	0x3d88f1b9	0.0668673
102	0xbcfbaf8e	-0.03072336
103	0x3d1aa643	0.037756216
104	0xbd912468	-0.07087022
105	0xbdaba412	-0.08380903
106	0x3d59e1c6	0.05319383
107	0xbd61086b	-0.05493967
108	0x3ce54dcd	0.0279912
109	0x3c806596	0.01567344
110	0x3dc64088	0.09680277
111	0x3cc41e72	0.023940299
112	0xbd6f4705	-0.05841734
113	0xbbe0d04a	-0.0068607675
114	0xbda43892	-0.080186024
115	0xbd622857	-0.055214252
116	0xbd11ece4	-0.035626307
117	0x3d42df75	0.047576386
118	0xbd84ede4	-0.064906865
119	0x3d834f4b	0.06411608
120	0x3cd85a8e	0.026410367
121	0xbdb42341	-0.08795787
122	0xbda8b0d0	-0.08236849
123	0x3d4f4ce3	0.050610434
124	0xbd0b9928	-0.034081608
125	0x3d814909	0.063127585
126	0xbd3cfb60	-0.046138167
127	0x3d7a1c7e	0.06106233
128	0xbd3d8816	-0.04627236
129	0xbd584509	-0.052800212
130	0xbd016cb1	-0.031597797
131	0x3c83c022	0.016082827
132	0xbcac61d8	-0.02104275
133	0xbd252aa1	-0.040323857
134	0x3da1d305	0.07901577
135	0xbceadc1e	-0.028669413
136	0x3d470e60	0.048597693
137	0x3dce1c28	0.10063964
138	0x3cab3854	0.020900883
139	0xbd885178	-0.06656164
140	0x3da5d3c6	0.08097033
141	0xbc669644	-0.014073912
142	0x3dbe39e5	0.09288386
143	0x3d31fb56	0.043452583
144	0x3d29bb04	0.041438118
145	0x3b9b46cf	0.0047386657
146	0x3d6441b2	0.055726714
147	0x3db04c16	0.08608262
148	0x3d16ce0e	0.036817603
149	0x3d8ebbc9	0.06969411
150	0x3d6c20d9	0.057648513
151	0xbd0b903f	-0.03407311
152	0x3cf45c92	0.029829297
153	0x3d682973	0.056680154
154	0xbca9b4ca	-0.02071609
155	0xbd5cfa90	-0.053949893
156	0x3d0a77d0	0.03380567
157	0xbd993c28	-0.07482177
158	0xbafe2a8b	-0.0019391341
159	0xbd19968e	-0.037497096
160	0x3d8d7a89	0.06908137
161	0x3d16cf69	0.036818895
162	0x3d5fc22d	0.05462854
163	0xbcb084b8	-0.02154766
164	0x3d3ecca5	0.046581883
165	0xbd07dba2	-0.033168443
166	0xbcbd93aa	-0.0231417
167	0xbdaae11d	-0.08343718
168	0xbbb8bb7c	-0.0056375843
169	0xbd9ad745	-0.07560591
170	0x3c7ff354	0.015621979
171	0x3d3d75b6	0.046254836
172	0x3d553f9d	0.05206262
173	0xbcdc0bce	-0.026861098
174	0xbd68d240	-0.056841135
175	0x3d8e0278	0.069340646
176	0x3d92bce5	0.07164935
177	0x3d45b4bf	0.048268076
178	0x3da8ea30	0.08247793
179	0xbc1011c2	-0.008793296
180	0xbd64a3ed	-0.055820394
181	0xbd8b5ddd	-0.068050124
182	0xbb4ff066	-0.0031728982
183	0xbd38e1b6	-0.04513713
184	0xbb9141f2	-0.00443291
185	0x3ce9e245	0.028550277
186	0x3cf18a05	0.029484758
187	0x3ca72e60	0.020407856
188	0x3d41d582	0.047322758
189	0xbcea6d83	-0.028616672
190	0x3d1dd3a2	0.038531907
191	0xbc6ab74b	-0.014325927
192	0xbd49ba89	-0.04925016
193	0x3d8624ca	0.06549986
194	0x3d7a4ec6	0.06111028
195	0xbd5a504a	-0.053299226
196	0x3c0e6318	0.008690618
197	0xbdb0a970	-0.08626068
198	0x3d5624e2	0.052281268
199	0x3d8c2829	0.068435974
200	0x3d83b732	0.06431426
201	0x3d82fb13	0.06395545
202	0xbd00b6a2	-0.031424172
203	0xbce64fce	-0.028114226
204	0xbc2ff515	-0.010739584
205	0x3d088ac5	0.033335466
206	0xbd86585d	-0.06559823
207	0xbc0cafb5	-0.008586814
208	0x3aed1679	0.0018088362
209	0x3d3f06b2	0.046637245
210	0xbc8ebb51	-0.017423304
211	0xbd84b82d	-0.06480441
212	0x3d5e2f57	0.054244366
213	0x3bb8f060	0.0056438893
214	0xbda9284c	-0.08259639
215	0xbd733952	-0.059380837
216	0xbb67e711	-0.003538553
217	0x3c536e6a	0.012904743
218	0x3c307dab	0.010772149
219	0xbdae6ef7	-0.085172586
220	0x3c9cc408	0.019136444
221	0x3d1ccc32	0.038280673
222	0x3b21a829	0.0024666882
223	0xbd58f590	-0.05296856
224	0xbd96e9e6	-0.07368831
225	0x3d917a6b	0.071034275
226	0x3d80d4d5	0.062905945
227	0x3dbe4c7d	0.09291933
228	0xbcfa366a	-0.030543525
229	0x3c04861b	0.008088614
230	0xbc23651e	-0.009972839
231	0xbcbb7e98	-0.022887513
232	0x3d979428	0.074013054
233	0xbdcc3a74	-0.099720865
234	0xbc738335	-0.014862825
235	0x3da0846b	0.07837757
236	0xbdb8dc2d	-0.0902637
237	0x3d8b2afe	0.067953095
238	0xbc515615	-0.012776871
239	0x3cf4b158	0.02986972
240	0xbd516f34	-0.051131442
241	0x3b21fe24	0.002471813
242	0xbc128749	-0.008943387
243	0x3d003a80	0.03130579
244	0xbb191074	-0.0023355754
245	0x3d28f925	0.041253228
246	0xbd3d0329	-0.046145592
247	0xbd306d8d	-0.043073226
248	0xbdc3e80a	-0.09565742
249	0x3c133016	0.008983633
250	0xbb57fe71	-0.0032958055
251	0xbc395881	-0.011312605
252	0x3c410127	0.01178006
253	0x3c174b9e	0.009234337
254	0xbdb75337	-0.08951419
255	0x3d2f8b83	0.042857658

bias_ih_l0 f4 [512]
0	0x3d2a2016	0.041534506
1	0x3c97970c	0.018504642
2	0xbd16bc3f	-0.03680062
3	0xbbb83f71	-0.005622797
4	0xbd81110b	-0.06302079
5	0x3c34eab5	0.011042287
6	0xbcb103b7	-0.021608217
7	0x3d3647eb	0.04450218
8	0xbd344af4	-0.044016793
9	0x3d5e94d4	0.054341152
10	0x3da7aeb3	0.08187618
11	0xbd1c7328	-0.03819576
12	0x3d95b290	0.07309449
13	0x3c7069ec	0.014673691
14	0xbd8f6b5c	-0.07002899
15	0xbda32c66	-0.07967453
16	0xbd79d042	-0.060989626
17	0xbd42707e	-0.047470562
18	0x3dc96dc7	0.098353915
19	0xbbac7116	-0.0052625043
20	0xbcd08bbf	-0.025457261
21	0xbd7ba479	-0.06143615
22	0x3cb1c2a2	0.021699253
23	0x3db5827f	0.08862781
24	0xbceb0485	-0.028688679
25	0xbd12be0b	-0.03582577
26	0xbd1127c4	-0.035438314
27	0x3c9f366b	0.019435128
28	0xbd2d206b	-0.042267244
29	0x3d8057f1	0.062667735
30	0xbd84f8b9	-0.064927526
31	0xbd25919f	-0.04042208
32	0x3de5f6e8	0.11228734
33	0x3c0db1b8	0.0086483285
34	0x3d3362c5	0.043795366
35	0xbd5119a0	-0.05104983
36	0x3d58fca8	0.052975327
37	0xbda3d08c	-0.079987615
38	0xbb04efb9	-0.0020284487
39	0x3d75b0f4	0.05998321
40	0x3ccba5e7	0.024859382
41	0x3b152dc6	0.0022762879
42	0xbcbd4650	-0.023104817
43	0x3d665c64	0.056240454
44	0x3d676684	0.05649425
45	0x3d374c80	0.04475069
46	0xbd348f40	-0.044081926
47	0x3da30c03	0.079612754
48	0xbd79c6ed	-0.060980726
49	0xbd68c363	-0.05682696
50	0xbd85ffad	-0.06542907
51	0x3da3647f	0.079781525
52	0x3ca5e6fa	0.02025174
53	0xbd804a40	-0.06264162
54	0x3d93f11e	0.07223724
55	0x3b8af96f	0.0042411606
56	0x3d94948d	0.07254896
57	0x3cd9955b	0.026560476
58	0xbc9c929b	-0.019112876
59	0x3c6d6809	0.014490136
60	0xbd2faf54	-0.042891815
61	0x3d2a3e1d	0.041563142
62	0x3dabbd2e	0.083856925
63	0xbd97379c	-0.073836535
64	0xbda539c6	-0.0806766
65	0x3db5a8bc	0.08870074
66	0xbd2c2b32	-0.04203338
67	0x3c2cc02d	0.010543865
68	0x3da2ca9f	0.07948803
69	0x3d61bde9	0.055112753
70	0x3d80dcc1	0.062921055
71	0x3d2eb538	0.042653292
72	0x3dc5fe38	0.09667629
73	0x3d32195c	0.043481216
74	0x3d278027	0.0408937
75	0xbcf9e48f	-0.030504493
76	0xbc6c61f5	-0.014427652
77	0x3d959201	0.07303239
78	0xbc234d20	-0.0099671185
79	0x3dbc029e	0.09180187
80	0x3c1b0559	0.009461724
81	0xbd8ac936	-0.06776659
82	0x3d75e8f5	0.06003662
83	0xbd725ca7	-0.05917039
84	0x3d70fac9	0.058832917
85	0x3d4294f6	0.04750534
86	0x3c9e72e2	0.01934189
87	0xbd817c07	-0.063224845
88	0xbd6ec87a	-0.058296658
89	0xbda7e7e3	-0.08198526
90	0x3dad3f06	0.084592864
91	0xbc8f1450	-0.01746574
92	0x3a9b4bff	0.001184821
93	0xbb86ad82	-0.004110039
94	0xbd0c5184	-0.034257427
95	0x3cac7773	0.021053052
96	0xbd0239ea	-0.031793512
97	0x3c5a27a7	0.013315118
98	0x3ce5bab8	0.028043136
99	0xbd4999e8	-0.049219042
100	0x3dc47598	0.09592742
101	0xbd9d0205	-0.07666401
102	0x3c33655e	0.010949461
103	0x3cb05cb9	0.021528589
104	0x3ca49b7e	0.020093676
105	0x3d6225aa	0.0552117
106	0x3ba22a47	0.0049488875
107	0x3dbdd227	0.09268599
108	0x3d2c5ec0	0.04208255
109	0x3c1c7fd1	0.009551958
110	0xbd8f9099	-0.07010002
111	0x3cfe06e7	0.03100915
112	0xbd192fef	-0.03739923
113	0x3c741a23	0.01489881
114	0x3d9eea28	0.077595055
115	0x3cb90906	0.02258731
116	0xbd1d006a	-0.038330473
117	0x3be4bd1a	0.0069805505
118	0xbd17d2c4	-0.037066236
119	0x3d6a5804	0.057212844
120	0x3d1e366b	0.038626116
121	0x3d238e68	0.03993073
122	0x3b0ab6f0	0.0021166168
123	0x3d513022	0.051071294
124	0x3c92a6ac	0.017901741
125	0xbd042357	-0.032260265
126	0xbd3ca31a	-0.046053983
127	0xbcb9e4a5	-0.022692034
128	0x3da218ed	0.079149105
129	0x3d861499	0.065468974
130	0xbd8f140d	-0.06986246
131	0x3cd81b55	0.02638022
132	0xbbcd86ec	-0.0062721875
133	0x3d948fb1	0.072539695
134	0xbb97084c	-0.0046091434
135	0x3d978be8	0.07399732
136	0x3dac2b49	0.084066935
137	0xbcf13649	-0.02944483
138	0xbcba6387	-0.022752536
139	0x3dd054f3	0.10172453
140	0x3db838f0	0.08995235
141	0xbd89b45b	-0.06723853
142	0x3c974ad3	0.018468296
143	0x3da93d98	0.08263701
144	0xbd5ab1fa	-0.053392388
145	0x3dabea13	0.083942555
146	0x3e11a86d	0.14224406
147	0x3daa695d	0.08320878
148	0x3d4293c7	0.047504213
149	0xbc04706c	-0.008083444
150	0x3d92dc4c	0.071709245
151	0xbd16c793	-0.036811423
152	0x3d8b9b38	0.06816715
153	0xbcccc887	-0.024997963
154	0xbd8d925c	-0.069126815
155	0x3d89f27e	0.06735705
156	0xbd01fe56	-0.031736694
157	0xbd811eb1	-0.06304682
158	0x3d84b6e5	0.06480197
159	0x3cbcd4d0	0.023050696
160	0xbcd2d7ea	-0.025737721
161	0xbc5c0933	-0.013429928
162	0x3dad68c3	0.08467247
163	0x3d9a367c	0.07529923
164	0x3da8d70d	0.08244143
165	0x3dacff4b	0.08447131
166	0xbc92798c	-0.017880224
167	0xbb922f1a	-0.0044611814
168	0xbd723bbc	-0.059139
169	0x3c892356	0.016740482
170	0x3d97fedc	0.074216574
171	0xbbeee09a	-0.007289958
172	0xbd1af33b	-0.03782962
173	0x3c6bf459	0.014401519
174	0x3db17757	0.086653404
175	0x3d447ba9	0.047969494
176	0x3c286daf	0.010280057
177	0xbcb4d8c5	-0.02207602
178	0x3d3e822f	0.04651087
179	0xbd197446	-0.037464403
180	0x3d130eb2	0.035902686
181	0xbd976cd3	-0.073938034
182	0x3d07b5fa	0.03313253
183	0x3c9758ea	0.018475015
184	0x3d518b27	0.051158097
185	0x3bfb378a	0.007666533
186	0x3da3adc1	0.07992125
187	0x3d53f7fc	0.05175017
188	0x3d53863a	0.05164168
189	0x3cadafab	0.02120193
190	0xbd8d69d9	-0.069049545
191	0x3d932dfd	0.07186506
192	0xbcca7c52	-0.024717484
193	0xbd6f7c23	-0.058467995
194	0x3c7922a9	0.0152060175
195	0x3d6118dc	0.05495535
196	0xbcd264c5	-0.025682816
197	0x3d433a92	0.04766328
198	0xbd490744	-0.049079195
199	0x3ce78f5c	0.028266601
200	0x3d39f011	0.04539496
201	0x3daabaee	0.08336435
202	0xbd873054	-0.06601015
203	0x3d571ef2	0.052519746
204	0x3c89501c	0.016761832
205	0xbd4688ac	-0.048470184
206	0xbcdfca43	-0.027318126
207	0x3dd0b163	0.10190084
208	0x3dca6505	0.09882549
209	0xbd4ab074	-0.049484685
210	0x3b910577	0.0044257003
211	0xbc8d2db3	-0.017233705
212	0x3dd22336	0.10260622
213	0x3cfd5cf7	0.030928118
214	0x3dbdc421	0.09265924
215	0xbd1c2296	-0.03811892
216	0xbcb81e0d	-0.022475267
217	0xbd1cf617	-0.038320627
218	0xbbc97f41	-0.006149203
219	0x3c55f0eb	0.013057928
220	0x3cdcf78c	0.026973508
221	0x3cee6888	0.029102579
222	0x3d13f5ce	0.03612309
223	0x3cbd509d	0.023109728
224	0x3d7000b1	0.05859441
225	0xbb07e299	-0.0020734428
226	0x3d684956	0.056710564
227	0x3db4c3d6	0.08826415
228	0xbceb5ca9	-0.028730707
229	0x3d7ec364	0.062198058
230	0xbd5d78bb	-0.054070216
231	0x3ce9b41d	0.028528268
232	0xbd564730	-0.052313983
233	0xbd66f152	-0.056382485
234	0x3cd82c8d	0.026388431
235	0x3d870e5f	0.06594538
236	0xbd91d9ff	-0.071216576
237	0x3ba00fbf	0.0048846896
238	0x3d4306a5	0.04761376
239	0x3c25ab35	0.01011162
240	0x3c80f3ce	0.015741255
241	0xbd5c1ab1	-0.053736392
242	0xbcf4fc72	-0.029905532
243	0xbd6c30d1	-0.057663742
244	0x3b8e92e5	0.0043510073
245	0xbcfe4e40	-0.031043172
246	0x3d081015	0.033218462
247	0x3d89c72b	0.067274414
248	0xbd4daa9b	-0.05021153
249	0x3db3869d	0.0876591
250	0x3da1ae9f	0.078946345
251	0x3d9c1585	0.07621292
252	0x39ead3b9	0.00044789704
253	0x3bafdd4d	0.0053669573
254	0x3d7e647f	0.06210756
255	0xbcc75102	-0.02433062

bias_hh_l0 f4 [512]
0	0x3d601246	0.054704927
1	0xbd3cdc9e	-0.046108834
2	0x3d874ad8	0.06606072
3	0xbb4becb1	-0.003111642
4	0x3dc1921a	0.09451695
5	0xbd7d6a45	-0.061868925
6	0xbda5287b	-0.08064362
7	0xbd4c0154	-0.049805954
8	0x3d9a21e5	0.07525996
9	0xbd4f6360	-0.05063188
10	0xbd8ab4eb	-0.067727886
11	0xbcae6bc9	-0.02129163
12	0x3dbba4b8	0.09162277
13	0x3d1cf358	0.03831801
14	0x3d93cfa9	0.072173424
15	0xbc3b1e4b	-0.011420797
16	0x3dba66b3	0.091016196
17	0x3b9f5a0b	0.004863029
18	0x3cc5b194	0.024132527
19	0xbce2cc7c	-0.027685396
20	0xbd374117	-0.04473981
21	0x3daa7833	0.083237074
22	0xbdb0ed25	-0.08638982
23	0x3db80a62	0.08986355
24	0xbcc09c0d	-0.02351191
25	0x3dae4659	0.085095115
26	0xbd1cf7ee	-0.03832238
27	0xbd097af7	-0.033564534
28	0x3d68f89b	0.056877714
29	0x3da8ee2b	0.08248552
30	0x3d9a9c9b	0.075494014
31	0x3d011aaa	0.03151957
32	0xbccbfdff	-0.024901388
33	0xbc17cd1b	-0.00926521
34	0x3cec4af9	0.028844343
35	0x3dcba8bd	0.09944294
36	0xbd9b8ebc	-0.07595584
37	0xbd4484c6	-0.047978185
38	0x3d684a3d	0.056711424
39	0xbcd4d8e9	-0.025982337
40	0xbcac15a1	-0.021006407
41	0x3cb39121	0.021919789
42	0xbd47a894	-0.048744753
43	0xbcd56fcb	-0.026054284
44	0x3d3755f9	0.044759724
45	0xbd039218	-0.032121748
46	0xbd3c3203	-0.045946132
47	0x3c8e5e89	0.017379062
48	0x3be28b19	0.0069135544
49	0xbc84c3f1	-0.016206713
50	0x3cd45689	0.02592017
51	0x3dbe8879	0.09303374
52	0xbc99ff72	-0.018798564
53	0xbd2c0f43	-0.042006742
54	0xbcc31ec6	-0.023818385
55	0x3d0915e7	0.033468153
56	0x3d74e463	0.05978812
57	0x3dc13e32	0.09435691
58	0x3c10348e	0.0088015925
59	0x3cdcfcaf	0.026975958
60	0x3d21bde4	0.039487734
61	0x3d45f262	0.048326857
62	0x3db3bcf4	0.08776274
63	0xbd43cc6a	-0.047802366
64	0xbd9cc4fd	-0.0765476
65	0xbd01cbf5	-0.03168865
66	0xbc0cbef8	-0.008590452
67	0xbd88a789	-0.0667258
68	0x3d5b45db	0.053533416
69	0xbb70a6c5	-0.0036720496
70	0xbb145436	-0.0022633201
71	0xbd0eb97b	-0.034844857
72	0x3d9aa171	0.07550324
73	0x3cc55945	0.024090419
74	0xbce22b95	-0.027608672
75	0x3d14e971	0.03635544
76	0xbce55621	-0.027995171
77	0x3d764ab7	0.060129847
78	0xbd683bce	-0.05669766
79	0x3dc52ca2	0.09627654
80	0x3dedfed9	0.11620874
81	0xbd85b4f5	-0.065286554
82	0xbd07339b	-0.0330082
83	0xbd3df19a	-0.046372987
84	0xbc91f82e	-0.017818537
85	0x3d501bfe	0.050807945
86	0xbd786709	-0.060645137
87	0xbd0ef913	-0.034905504
88	0x3d9b9229	0.07596237
89	0xbd3cee0e	-0.046125464
90	0xbd2ed2bb	-0.042681437
91	0x3aa37c07	0.0012472876
92	0xbda17819	-0.07884235
93	0xbcd5be9e	-0.02609187
94	0x3d2324ba	0.039829947
95	0xbcb24a4b	-0.021763941
96	0xbd82a5c2	-0.06379272
97	0x3da89c6a	0.082329586
98	0xbcdd9e69	-0.027053075
99	0x3d8b0cd7	0.067895584
100	0x3d8959a2	0.06706549
101	0xbd792b0f	-0.06083208
102	0xbceefc88	-0.02917315
103	0x3ced9334	0.029000856
104	0x3d8c6ce4	0.06856707
105	0x3cb2fa5f	0.021847902
106	0x3d19e76b	0.037574213
107	0xbbeda908	-0.007252816
108	0x3dadcb5e	0.08486055
109	0x3c71bd2b	0.014754574
110	0x3d6f85dc	0.058477268
111	0xbd097089	-0.033554588
112	0xbd5f32d9	-0.05449185
113	0x3c900b99	0.017583655
114	0xbd8707f0	-0.06593311
115	0x3beafd46	0.007171306
116	0x3d3d5ca9	0.046230946
117	0x3d41fd68	0.047360808
118	0x3c019b56	0.00791057
119	0x3ba9281e	0.005162253
120	0xbd820efc	-0.06350514
121	0xbc7f6914	-0.015589017
122	0x3d34855e	0.0440725
123	0x3cb0db5f	0.02158898
124	0x3d918459	0.071053214
125	0x3d335859	0.043785427
126	0xbd558021	-0.052124146
127	0xbd80d288	-0.06290156
128	0x3d72dd4e	0.059293084
129	0x3a0a53b6	0.0005276756
130	0x3c5ebb0d	0.013594401
131	0xbbd94679	-0.0066307154
132	0x3ccfb256	0.025353592
133	0x3da7eecc	0.08199844
134	0x3d8b336d	0.06796918
135	0x3d13eda3	0.0361153
136	0xbd06aa29	-0.03287712
137	0xbd3326b3	-0.04373808
138	0xbcb24c6b	-0.021764955
139	0x3d94df56	0.072691604
140	0x3db8edf8	0.09029764
141	0x3db635e9	0.08897001
142	0x3d8a6c64	0.06758955
143	0xbba87570	-0.0051409528
144	0x3dbd7b24	0.09252003
145	0xbce7f39b	-0.028314402
146	0x3e2c1b51	0.16807295
147	0x3cccadf9	0.0249853
148	0x3b234927	0.0024915428
149	0x3cd27003	0.025688177
150	0xbcabd0b7	-0.020973546
151	0x3da3e86a	0.08003314
152	0x3dab51a1	0.08365179
153	0xbd4dd1c9	-0.050248895
154	0x3ccb02d1	0.024781616
155	0xbc25ddb2	-0.010123657
156	0x3dc2cd0a	0.09511764
157	0xbcbc28e9	-0.022968726
158	0x3d9962c0	0.07489538
159	0xbd1931a5	-0.03740086
160	0x3db94578	0.09046453
161	0x3d088fb1	0.03334016
162	0x3cf06aa5	0.029347727
163	0x3bc7978f	0.0060910652
164	0x3db1c5ee	0.0868033
165	0xbd87eb9a	-0.06636734
166	0x3d98d76d	0.07462964
167	0xbd5e942c	-0.054340526
168	0x3d6e2434	0.058139995
169	0x3c9d2c5d	0.019186193
170	0x3c6d014a	0.014465639
171	0x3d84817d	0.064700104
172	0x3d63a61e	0.055578344
173	0xbd323a16	-0.043512426
174	0x3b9dd7cc	0.0048169848
175	0xbd06d169	-0.032914553
176	0x3db737ce	0.08946191
177	0x3d95b0d1	0.07309116
178	0xbce03158	-0.027367279
179	0x3db433fc	0.08798978
180	0xbd61e325	-0.055148263
181	0xbdaa3d34	-0.08312455
182	0x3cedae38	0.029013738
183	0x3c7e708e	0.015529765
184	0xbd828321	-0.06372667
185	0xbcf06998	-0.029347226
186	0x3bcf36f9	0.006323692
187	0x3cba60b2	0.022751186
188	0x3c371cfb	0.011176343
189	0xbcc6fff1	-0.024291964
190	0xbd53a814	-0.051673964
191	0x3a325d60	0.0006804075
192	0xbd5abb51	-0.053401295
193	0x3afcf227	0.0019298241
194	0xbc80af53	-0.015708601
195	0x3dc64456	0.09681003
196	0x3db7f115	0.089815296
197	0x3a907e6f	0.0011024008
198	0x3d9ea44a	0.077461794
199	0xbd908933	-0.07057419
200	0x3e33a9fb	0.17545311
201	0xbd8db3bb	-0.069190465
202	0xbce8dca4	-0.028425522
203	0xbcb63b0c	-0.022244953
204	0x3d1e11a2	0.038591035
205	0xbd2413aa	-0.040057816
206	0x3c92a2c7	0.017899884
207	0x3db8cf92	0.09023966
208	0x3da87678	0.08225721
209	0x3daa2402	0.08307649
210	0xbd79ab29	-0.060954247
211	0xbd3e0bf2	-0.04639811
212	0x3c8c1895	0.017101565
213	0x3d48e616	0.049047552
214	0xbd0a5336	-0.033770762
215	0x3ddcc866	0.107804105
216	0xbd38e5f3	-0.04514117
217	0xbd09c8d9	-0.03363881
218	0x3d99d692	0.07511629
219	0x3cff835d	0.031190569
220	0x3cbaf582	0.022822145
221	0x3c189eac	0.009315174
222	0xbd21742b	-0.039417427
223	0x3da8acaf	0.08236062
224	0x3ceaca3b	0.028660884
225	0x3b0705cc	0.002060282
226	0x3d9b3ffe	0.07580565
227	0xbcd2ad99	-0.025717543
228	0xbce6477a	-0.028110255
229	0x3d8511ed	0.0649756
230	0xbce4929d	-0.027901942
231	0xbd89a998	-0.067218006
232	0xbd9daf61	-0.076994665
233	0xbc334943	-0.01094276
234	0x3d84cb2c	0.064840645
235	0x3db442d2	0.088018075
236	0x3d595faf	0.053069767
237	0xbd782b6a	-0.060588278
238	0x3dc19995	0.094531216
239	0x3d1273ac	0.035754845
240	0xbc876b7f	-0.01653075
241	0xbcbf2416	-0.023332637
242	0x3d732ac4	0.059366956
243	0x3d388c31	0.045055572
244	0x3da5d926	0.080980584
245	0x3afeb34c	0.0019432097
246	0x3dbbc9da	0.091693595
247	0x39e2f57f	0.00043288988
248	0xbd9bac11	-0.076011784
249	0x3d96fc1c	0.07372305
250	0xbb6757f1	-0.003530022
251	0x3c28e04f	0.010307386
252	0x3cdee27b	0.027207604
253	0x3d7ce347	0.061740186
254	0x3c716a4f	0.014734819
255	0xbd807ae6	-0.06273441

weight f4 [1, 128]
0	0xbe62dac2	-0.22153762
1	0xbbfc094f	-0.0076915394
2	0x3e157f2c	0.14599293
3	0x3d4f7f6c	0.05065863
4	0xbdcd5146	-0.10025267
5	0x3cc3f0ec	0.023918591
6	0x3db18170	0.08667266
7	0x3d99e2e0	0.07513976
8	0xbcdc5ae7	-0.026898814
9	0x3c8f74bf	0.017511724
10	0xbd659832	-0.056053348
11	0xbd837fd5	-0.064208664
12	0x3ea2f9e0	0.31831264
13	0x3e03c05f	0.12866352
14	0x3d1f47a8	0.038886696
15	0xbd82896b	-0.06373867
16	0xbd8bbac2	-0.068227306
17	0x3c1a0274	0.009399999
18	0x3ec32373	0.38112983
19	0xbe55202a	-0.20813051
20	0x3dd16bc4	0.10225633
21	0xbdf3c4ee	-0.11902796
22	0xbd266136	-0.04062005
23	0xbc764330	-0.015030667
24	0xbab6b2d8	-0.0013938798
25	0x3c730656	0.014833054
26	0x3c82797b	0.015927067
27	0xbdb50849	-0.08839471
28	0xbe1506e0	-0.14553404
29	0xbd02a7be	-0.031898253
30	0x3d9b0acb	0.07570418
31	0x3df57957	0.11986034
32	0xbe5fd403	-0.2185822
33	0x3e1a101b	0.15045206
34	0xbe13de26	-0.14440212
35	0xbe404e17	-0.18779789
36	0x3dfc02b6	0.123052046
37	0x3d3a900d	0.045547534
38	0xbdaa8b8f	-0.083274
39	0xbc7f6c1b	-0.015589739
40	0x3de046a6	0.10950975
41	0xbda1102f	-0.07864415
42	0x3d84d85e	0.06486581
43	0x3cb4fefd	0.022094244
44	0x3d857948	0.06517273
45	0xbe3632a8	-0.17792761
46	0xbd383c03	-0.044979107
47	0x3d20eef7	0.039290395
48	0x3dbc8c6f	0.09206473
49	0x3da6d016	0.08145158
50	0x3dc44e0d	0.095851995
51	0xbd1b0ed8	-0.037855953
52	0x3ea1b580	0.31583786
53	0x3c925bfe	0.01786613
54	0xbc969e76	-0.018386107
55	0x3bc2c7fb	0.0059442497
56	0x3dc96cd9	0.09835214
57	0x3dd3a67a	0.10334487
58	0xbdaf8f8c	-0.08572301
59	0xbc2a4d00	-0.010394335
60	0x3c8db02e	0.017295923
61	0xbdd840f4	-0.10559264
62	0x3d124bc7	0.0357168
63	0x3d803948	0.062609255
64	0xbd989025	-0.074493684
65	0x3e3d2f63	0.18475108
66	0xbcecedc7	-0.028921975
67	0xbe27f91b	-0.1640362
68	0xbd925d67	-0.07146721
69	0xbd5c2e80	-0.053755283
70	0xbcd02155	-0.025406519
71	0xbe12a6da	-0.14321461
72	0x3ebf8fbb	0.37414345
73	0x3d7d0ec3	0.061781656
74	0x3d75b2d9	0.059985016
75	0xbe6ccff1	-0.23126198
76	0x3e06c54b	0.13161199
77	0xbd668d7e	-0.05628728
78	0xbc987dbe	-0.018614646
79	0x3e0c446b	0.13697974
80	0xbe3a4889	-0.18191732
81	0xbda3f65e	-0.08005975
82	0x3d0cb488	0.034351856
83	0x3d8c413a	0.068483785
84	0x3e9c6b71	0.3055072
85	0x3d7dbfdd	0.061950553
86	0xbd95b610	-0.07310116
87	0x3cf6f5ed	0.030146563
88	0xbdf9e202	-0.12201311
89	0x3e234b0e	0.159466
90	0xbd93134c	-0.07181415
91	0xbd4def51	-0.050277058
92	0x3c5f3a8d	0.013624799
93	0x3dcf489e	0.101212725
94	0xbd5d8ec4	-0.05409123
95	0xbd6ddecf	-0.058073815
96	0x3e808e6c	0.2510866
97	0x3e12e027	0.1434332
98	0x3d9af275	0.07565776
99	0x3cf427d4	0.029804148
100	0xbda20b69	-0.079123326
101	0xb9191bb0	-0.00014601531
102	0x3e1c3f8a	0.15258613
103	0x3da4b2ca	0.08041914
104	0xbc42961b	-0.011876608
105	0x3ce94cc4	0.028478988
106	0x3d3d670e	0.04624086
107	0x3c271bef	0.010199531
108	0x3df45a1f	0.11931252
109	0xbd68e75b	-0.056861263
110	0xbe2c9371	-0.1685312
111	0xbda4a1d5	-0.080386795
112	0xbd1c7b85	-0.038203735
113	0xbd389378	-0.045062512
114	0xbd03cb42	-0.032176264
115	0x3dda0847	0.1064611
116	0xbdada21b	-0.08478185
117	0xbe00bd28	-0.12572157
118	0x3d22a131	0.039704505
119	0xbdd12c0b	-0.10213479
120	0xbdcfff77	-0.10156148
121	0x3e9ca6c7	0.3059599
122	0x3e1b6573	0.15175419
123	0x3d904145	0.07043699
124	0x3dfe90e7	0.12429982
125	0xbad80379	-0.0016480527
126	0xbdf4d822	-0.119552866
127	0x3d88f185	0.06686691
