AudioReaction/wakeword_m.pt (torch, 358104 bytes, 7 tensors)

weight f4 [40]
1.0050979 1.0081552 1.0033965 1.0074587 1.002548 0.9995838 0.99961716 0.99529773
1.0072429 0.9954414 1.0037348 1.0041449 1.0051501 0.99855906 1.0077899 1.0080397
1.0060681 1.0050223 1.0052208 1.0067599 1.0005698 1.0062522 1.0066102 0.9968988
0.99622494 0.9998496 1.0014063 1.0042244 0.99651825 0.9944352 0.9973672 1.002141
1.0031412 1.0045799 1.0017431 1.0029216 0.99430555 1.0001687 0.9992037 1.0024593
00000000: 0ca7 803f 3b0b 813f 4c6f 803f 68f4 803f
00000010: 7e53 803f b9e4 7f3f e9e6 7f3f d5cb 7e3f
00000020: 56ed 803f 3fd5 7e3f 627a 803f d287 803f
00000030: c2a8 803f 91a1 7f3f 42ff 803f 7207 813f
00000040: d7c6 803f 92a4 803f 13ab 803f 82dd 803f
00000050: ac12 803f dfcc 803f 9ad8 803f c234 7f3f
00000060: 9908 7f3f 25f6 7f3f 152e 803f 6d8a 803f
00000070: d21b 7f3f 4e93 7e3f 7553 7f3f 2846 803f
00000080: ee66 803f 1396 803f 1e39 803f bc5f 803f
00000090: cf8a 7e3f 8705 803f d0cb 7f3f 9650 803f

bias f4 [40]
0.0073483232 0.007946688 -0.004311762 -0.0076981573 -0.0026729766 -0.0029416024 -0.0022391102 -0.0018816969
-0.007886611 0.004194552 -0.0063029444 0.007657584 0.0035646071 0.00083744025 0.007900875 0.008151704
0.006694609 0.0063541997 0.006764309 0.006621048 0.0004347709 0.0062457984 0.007826878 -0.0032539433
-0.0074149477 -0.0007796169 0.007063646 0.0071219816 -0.0036051748 -0.004275796 0.0064314934 -0.006480304
0.0072506107 -0.0068328767 0.006121915 -0.003990917 -0.0076664025 -0.0041659283 -0.0047957813 0.007237877
00000000: 34ca f03b d332 023c ae49 8dbb d340 fcbb
00000010: 1b2d 2fbb e6c7 40bb 09be 12bb 45a3 f6ba
00000020: d836 01bc 7472 893b ee88 cebb 78ec fa3b
00000030: 2f9c 693b aa87 5b3a ac72 013c ba8e 053c
00000040: 735e db3b e436 d03b 23a7 dd3b 60f5 d83b
00000050: f6f1 e339 8ea9 cc3b 4e3c 003c 1c40 55bb
00000060: 17f9 f2bb 345f 4cba 2876 e73b 835f e93b
00000070: cc44 6cbb fa1b 8cbb 47bf d23b bb58 d4bb
00000080: 8896 ed3b 53e6 dfbb 589a c83b 3dc6 82bb
00000090: 7236 fbbb 5782 88bb ee25 9dbb b72b ed3b

weight_ih_l0 f4 [512, 40]
0.04052165 -0.04463179 -0.012264821 0.046875123 -0.07758347 0.057915565 -0.013152699 0.049415372
0.017614314 -0.0058350065 0.029692626 0.0009912503 0.027571902 -0.03974157 -0.011795593 -0.013113666
0.008115193 -0.004301378 0.074776724 0.022614967 -0.038249765 -0.058394838 -0.019656572 -0.042166308
-0.032591973 -0.0001892677 0.04947675 0.04512683 -0.0907003 0.051315743 0.02301846 0.08315639
0.05548586 -0.0800235 -0.08485539 -0.045193978 0.07485749 -0.017096493 0.0350992 -0.045438226
0.09233596 -0.030001437 0.059027754 -0.0059490628 -0.054006398 0.03821211 -0.054078814 0.019815035
-0.032625172 -0.01641846 -0.09199745 -0.036424406 0.054133225 -0.014392798 0.095264494 0.07809573
0.0027351223 -0.052621424 0.059105117 0.033935852 -0.050325543 0.064173065 0.060514405 0.08504812
-0.04306136 -0.007598611 0.0046993378 0.019302791 -0.060110647 -0.05617271 0.053261444 -0.015530051
0.049274288 0.008689103 0.03402132 0.025592497 0.03798339 0.049523473 -0.075772725 0.051454052
-0.06775173 -0.070868954 0.009933861 -0.012104262 0.051204324 -0.050309785 -0.078004465 0.06707174
-0.009693445 0.054247353 0.026336085 -0.069114916 0.012828396 0.017161105 -0.05945652 -0.04291581
0.030103693 0.013660562 -0.03412408 -0.02243077 0.08143501 -0.015136711 0.05306938 0.04149797
-0.057307504 -0.0741092 0.08334199 0.0028042223 0.059143607 0.018318092 0.027138501 0.06352814
0.087449744 -0.056770153 0.013087114 0.06635089 0.065698646 0.05674007 -0.062029574 -0.064215094
-0.054916177 0.010235619 0.08824071 -0.056668177 0.045735184 -0.049064275 -0.08507364 -0.016935196
0.05192684 0.08379784 -0.055572253 0.019491406 0.07546718 0.05818431 0.05390834 0.06266632
0.056478683 0.022421144 -0.059004325 -0.07458116 -0.041545086 -0.009549511 -0.053767912 0.03345762
0.027580429 -0.018492213 0.0364622 0.029392159 0.056227464 0.06281103 -0.029618597 0.08620416
-0.0076831984 -0.0005571886 -0.08046268 -0.05476093 -0.049609765 -0.03545638 0.06523598 -0.026404716
-0.07223756 0.03500815 0.02769413 0.059411038 -0.052139927 0.012485186 -0.03705385 -0.019713739
-0.071233995 -0.042904463 -0.033340894 0.04030922 0.014051252 0.023708925 0.09347519 0.085738726
0.0562904 -0.00082027237 -0.05835511 0.072471894 -0.017108828 -0.007484049 -0.075180046 -0.011779789
-0.05162329 0.08640045 -0.074297614 -0.06390692 0.002180097 -0.042063233 0.037960447 -0.02821909
-0.035182003 0.0099510625 0.06980524 -0.056736667 0.04705242 0.061180685 0.0903737 -0.058987923
0.023282152 -0.06142562 0.07165126 -0.03754421 0.047736276 -0.0001573252 -0.009798044 -0.0032839675
0.011239001 0.039848708 0.011283879 0.025395976 -0.07734891 0.06919065 0.082005985 0.076068595
0.06878674 -0.060714163 -0.031264756 0.07756015 -0.06733809 0.07969471 -0.06687126 -0.062747225
0.04490631 -0.0610361 -0.018172892 0.06968602 0.07383712 0.086384326 -0.01662592 -0.067098245
0.08897606 -0.017927648 -0.034181777 0.024545982 -0.05963022 0.060697038 0.058798205 -0.066654146
-0.07847025 -0.003136158 0.036792517 -0.006150306 -0.05088454 -0.0023742393 -0.087795176 -0.06571289
-0.05811105 0.07105553 0.07115313 -0.02795326 0.0011690493 0.03903969 0.012386411 -0.045746684
00000000: 08fa 253d d3cf 36bd 63f2 48bc 2100 403d
00000010: 15e4 9ebd df38 6d3d 6b7e 57bc c667 4a3d
00000020: e54b 903c 9533 bfbb f33d f33c d7ec 813a
00000030: 78de e13c 0ec8 22bd 4e42 41bc b4da 56bc
00000040: 96f5 043c 93f2 8cbb 8a24 993d 0643 b93c
00000050: c9ab 1cbd 6d2f 6fbd d206 a1bc 94b6 2cbd
00000060: 297f 05bd 2976 46b9 22a8 4a3d e9d6 383d
00000070: 14c1 b9bd 7530 523d 3691 bc3c e64d aa3d
00000080: 2445 633d 5ce3 a3bd aac8 adbd 521d 39bd
00000090: e24e 993d f20d 8cbc 2ec4 0f3d 6f1d 3abd
000000a0: a31a bd3d 93c5 f5bc 16c7 713d 5bf0 c2bb
000000b0: d035 5dbd 4d84 1c3d bf81 5dbd 2453 a23c
000000c0: f9a1 05bd 0280 86bc 2969 bcbd c231 15bd
000000d0: cdba 5d3d c5cf 6bbc 081a c33d a7f0 9f3d
000000e0: bd3f 333b 9089 57bd 3518 723d 5200 0b3d
000000f0: 2822 4ebd 2b6d 833d f4dd 773d b52d ae3d
00000100: 1c61 30bd c5fd f8bb e7fc 993b e320 9e3c
00000110: 9536 76bd 5b15 66bd ac28 5a3d c171 7ebc
00000120: d6d3 493d bd5c 0e3c f159 0b3d 5ba7 d13c
00000130: 7994 1b3d 20d9 4a3d bb2e 9bbd 7cc1 523d
00000140: 6bc1 8abd be23 91bd a2c1 223c f450 46bc
00000150: a0bb 513d a211 4ebd cec0 9fbd e95c 893d
00000160: 41d1 1ebc 7932 5e3d c6be d73c 1f8c 8dbd
00000170: 312e 523c 7295 8c3c ae88 73bd 7dc8 2fbd
00000180: 059c f63c 8dd0 5f3c b1c5 0bbd bcc0 b7bc
00000190: 66c7 a63d f8ff 77bc 475f 593d c7f9 293d
000001a0: 46bb 6abd 90c6 97bd 35af aa3d 0bc7 373b
000001b0: 9140 723d d30f 963c 9051 de3c 0b1b 823d
000001c0: da18 b33d d287 68bd 566b 563c fae2 873d
000001d0: 038d 863d 4768 683d b912 7ebd 3483 83bd
000001e0: c9ef 60bd 4cb3 273c 8cb7 b43d e41c 68bd
000001f0: d154 3b3d 9ff7 48bd 173b aebd aebb 8abc
00000200: 3db1 543d 349e ab3d bb9f 63bd 71ac 9f3c
00000210: 898e 9a3d ac52 6e3d fece 5c3d 3357 803d
00000220: 3156 673d 8cac b73c 85ae 71bd 02be 98bd
00000230: 2e2b 2abd 8d75 1cbc be3b 5cbd db0a 093d
00000240: 5af0 e13c fb7c 97bc 6359 153d d3c7 f03c
00000250: c54e 663d 12a3 803d b3a2 f2bc ce8b b03d
00000260: 57c3 fbbb 4b10 12ba 9ec9 a4bd ff4c 60bd
00000270: 9c33 4bbd b63a 11bd 719a 853d b44e d8bc
00000280: 49f1 93bd b564 0f3d cdde e23c fd58 733d
00000290: ad90 55bd aa8e 4c3c c7c5 17bd b57e a1bc
000002a0: 21e3 91bd 97bc 2fbd 7690 08bd 481b 253d
000002b0: 3937 663c 3839 c23c ec6f bf3d c997 af3d
000002c0: c390 663d 8c07 57ba c505 6fbd 256c 943d
000002d0: d027 8cbc c13c f5bb fff7 99bd 0400 41bc
000002e0: f172 53bd b8f2 b03d 5929 98bd a2e1 82bd
000002f0: f5df 0e3b 7f4a 2cbd 6a7c 1b3d b92b e7bc
00000300: 011b 10bd c809 233c 0df6 8e3d b564 68bd
00000310: 0aba 403d 9998 7a3d d915 b93d 529d 71bd
00000320: 36ba be3c 6e99 7bbd e5bd 923d f5c7 19bd
00000330: 1d87 433d a9f7 24b9 fa87 20bc d537 57bb
00000340: c923 383c 6638 233d 05e0 383c 390b d03c
00000350: 1b69 9ebd d4b3 8d3d c1f2 a73d dac9 9b3d
00000360: 10e0 8c3d 6aaf 78bd 790f 00bd dbd7 9e3d
00000370: 8de8 89bd fb36 a33d cdf3 88bd 9e81 80bd
00000380: aeef 373d fd00 7abd 51df 94bc 8bb7 8e3d
00000390: ea37 973d 44ea b03d 1533 88bc ce6a 89bd
000003a0: 1539 b63d 01dd 92bc 3102 0cbd a814 c93c
000003b0: d13e 74bd 759d 783d 63d6 703d f881 88bd
000003c0: 03b5 a0bd 0088 4dbb c0b3 163d 8288 c9bb
000003d0: 4f6c 50bd 2099 1bbb f5cd b3bd 7b94 86bd
000003e0: da05 6ebd 9085 913d bbb8 913d 3cfe e4bc
000003f0: c93a 993a 15e8 1f3d 60f0 4a3c e060 3bbd

weight_hh_l0 f4 [512, 128]
-0.09134192 -0.06376389 0.004411027 0.014295262 -0.030880021 -0.042350747 -0.05189562 0.047696866
0.0670386 0.07412578 -0.043741252 0.043787878 -0.033854198 0.07776365 -0.0043554073 -0.08307187
0.05178992 -0.004168094 -0.07202936 -0.058720943 -0.008162972 -0.039649654 -0.077151865 0.08914957
0.035732955 -0.06380338 -0.031641025 -0.06616558 -0.0153173935 0.08101901 -0.03680811 0.07918275
-0.019751616 -0.005697738 0.0930807 0.057161182 0.034803912 0.035303593 0.0072589046 -0.025309926
0.004553367 0.009806735 0.037216645 0.06662361 -0.065631375 -0.000627235 -0.08129614 0.018586561
-0.004891001 -0.04922581 -0.09180939 0.029822057 -0.059228398 0.0011554232 0.058571447 -0.031427957
-0.0033261667 -0.026052613 -0.034752633 0.081362836 0.094245024 0.091678195 -0.0072159534 -0.061091617
0.0052189454 0.014321101 0.016436474 0.038224284 -0.045238525 -0.035679072 0.051129427 0.018565323
-0.05020469 -0.0661912 0.07244898 0.08528932 -0.0032245393 0.05377746 -0.07183357 -0.030314604
-0.072178535 -0.07385577 -0.0041431296 0.07126924 -0.021309013 -0.062871665 0.007325553 -0.027905012
-0.023037279 -0.06582922 0.02626816 -0.042257894 -0.03363585 0.005769927 -0.05092873 0.03734337
-0.07002191 0.023162624 0.04413002 0.07431605 0.03209494 0.057662595 -0.029405642 0.019889588
-0.05807689 -0.08719966 0.036888834 -0.06793531 0.0021763365 0.040043555 0.08674952 0.018235618
-0.055304524 0.011307855 -0.0623864 -0.055404052 -0.030799842 0.051907316 -0.07709322 0.08698459
0.03470683 -0.05986171 -0.08350493 0.042568017 -0.041182328 0.0479466 -0.037936974 0.02135963
-0.039305333 -0.048362162 -0.046064615 -0.007901593 -0.028933289 -0.01960221 0.05902057 -0.035391033
0.06288567 0.07070034 0.032927144 -0.05097636 0.06382579 -0.027823702 0.092265144 0.04879421
0.047104996 -0.01931661 0.051586676 0.089129396 0.013784322 0.07974869 0.06875096 -0.023981098
0.029704675 0.05301746 -0.033805717 -0.050399184 0.03851515 -0.055151325 -0.014721766 -0.058003865
0.0756526 0.07138927 0.052057907 -0.024716018 0.04600695 -0.0254306 -0.023274962 -0.07714033
-0.007987338 -0.06053377 0.0015763374 0.040847987 0.057954963 -0.021320516 -0.034858327 0.086729445
0.052361697 0.029108174 0.074571915 0.0065956605 -0.06581571 -0.06932405 0.00024398793 -0.033581108
-0.0124101825 0.02280121 0.03656341 0.0260627 0.05086368 -0.053628616 0.010163515 -0.024246497
-0.02827679 0.06589265 0.06240805 -0.083966956 0.024513712 -0.07040285 0.068730034 0.087148264
0.06793519 0.050144125 -0.037429415 -0.038776737 -0.026303768 0.04121126 -0.058511868 -0.013256944
-0.0061488007 0.025993204 -0.032861833 -0.06767 0.07506878 -0.0123743685 -0.062538825 -0.046372745
-0.008875601 0.025514927 0.016070819 -0.09607747 0.028337844 0.020415181 0.0038614266 -0.04631296
-0.07324345 0.0774704 0.04847976 0.07310565 -0.016878907 0.035645537 -0.030547302 -0.022294631
0.07699203 -0.0797751 -0.014944586 0.07317995 -0.067931294 0.047084555 -0.03190812 0.05021997
-0.048006214 0.008536644 0.001791146 0.012100017 0.0038160388 0.054179315 -0.049798228 -0.03083578
-0.09028788 0.018856157 -0.011730758 -0.036297373 0.0025341774 0.00037914587 -0.08436114 0.030814527
00000000: 7911 bbbd a496 82bd 608a 903b ad36 6a3c
00000010: 19f8 fcbc fa77 2dbd 8090 54bd ca5d 433d
00000020: 894b 893d 42cf 973d 072a 33bd eb5a 333d
00000030: b3aa 0abd 8c42 9f3d ceb7 8ebb 9621 aabd
00000040: ab21 543d 8294 88bb 2184 93bd 5f85 70bd
00000050: fcbd 05bc ad67 22bd cc01 9ebd 0d94 b63d
00000060: b85c 123d 59ab 82bd 059a 01bd d281 87bd
00000070: cef5 7abc 4bed a53d 1ac4 16bd 912a a23d
00000080: 24ce a1bc 17b4 babb 18a1 be3d d821 6a3d
00000090: 8c8e 0e3d 809a 103d 1bdc ed3b c356 cfbc
000000a0: 6934 953b 6eac 203c 7b70 183d f671 883d
000000b0: be69 86bd 076d 24ba 977e a6bd d842 983c
000000c0: b144 a0bb 01a1 49bd 9006 bcbd 634d f43c
000000d0: 7a99 72bd 9271 973a 9de8 6f3d 9aba 00bd
000000e0: d1fb 59bb 4a6c d5bc c758 0ebd 8fa1 a63d
000000f0: 8903 c13d c7c1 bb3d ce73 ecbb 343b 7abd
00000100: b003 ab3b 0da3 6a3c c9a5 863c 1191 1c3d
00000110: 084c 39bd 3824 12bd 176d 513d 4e16 983c
00000120: 6fa3 4dbd 408f 87bd 2160 943d 2bac ae3d
00000130: cb52 53bb c145 5c3d 7b1d 93bd 5556 f8bc
00000140: 57d2 93bd b241 97bd 17c3 87bb 9bf5 913d
00000150: 3d90 aebc dcc2 80bd 310b f03b 0d99 e4bc
00000160: adb8 bcbc 78d1 86bd 5330 d73c 9d16 2dbd
00000170: bfc5 09bd a811 bd3b a59a 50bd 5df5 183d
00000180: a667 8fbd 8bbf bd3c aec1 343d 0333 983d
00000190: fc75 033d 9d2f 6c3d 1ae4 f0bc 7def a23c
000001a0: 08e2 6dbd bc95 b2bd bf18 173d ab21 8bbd
000001b0: dea0 0e3b b604 243d bba9 b13d dd62 953c
000001c0: ff86 62bd 9544 393c e288 7fbd 5cef 62bd
000001d0: f34f fcbc c49c 543d 0de3 9dbd fa24 b23d
000001e0: c028 0e3d 8d31 75bd a204 abbd cd5b 2e3d
000001f0: cdae 28bd a763 443d cd63 1bbd 64fa ae3c
00000200: a1fe 20bd 6717 46bd 40ae 3cbd af75 01bc
00000210: 8105 edbc d094 a0bc 8ebf 713d 30f6 10bd
00000220: 34ca 803d 57cb 903d 9dde 063d 96cc 50bd
00000230: 19b7 823d 88ee e3bc 82f5 bc3d 70dc 473d
00000240: 2bf1 403d de3d 9ebc 8d4c 533d 7989 b63d
00000250: a3d7 613c 4853 a33d 4ecd 8c3d 0274 c4bc
00000260: 3857 f33c d628 593d dd77 0abd 606f 4ebd
00000270: 10c2 1d3d 5be6 61bd 9033 71bc 7695 6dbd
00000280: c0ef 9a3d 8a34 923d ac3a 553d 3f79 cabc
00000290: c971 3c3d d553 d0bc 22ab bebc c0fb 9dbd
000002a0: 53dd 02bc 42f2 77bd 1b9d ce3a 3850 273d
000002b0: 2f62 6d3d 5da8 aebc 9bc7 0ebd 359f b13d
000002c0: 3879 563d 4474 ee3c 29b9 983d 6920 d83b
000002d0: 63ca 86bd c4f9 8dbd 03d7 7f39 588c 09bd
000002e0: 1454 4bbc 9ac9 ba3c 84c3 153d 7281 d53c
000002f0: 6f56 503d aea9 5bbd df84 263c 97a0 c6bc
00000300: baa4 e7bc baf2 863d 959f 7f3d def6 abbd
00000310: fbd0 c83c 5f2f 90bd 55c2 8c3d ca7a b23d
00000320: 9b21 8b3d ed63 4d3d 964f 19bd 5bd4 1ebd
00000330: 007b d7bc 23cd 283d 24aa 6fbd a733 59bc
00000340: e17b c9bb b3ef d43c 219a 06bd 9296 8abd
00000350: a9bd 993d ddbd 4abc 5b14 80bd 59f1 3dbd
00000360: f86a 11bc ae04 d13c f3a6 833c 44c4 c4bd
00000370: c424 e83c bd3d a73c fd0f 7d3b a9b2 3dbd
00000380: a900 96bd cda8 9e3d b692 463d 6ab8 953d
00000390: a245 8abc 0e01 123d 563e fabc 3ba3 b6bc
000003a0: ffad 9d3d 2161 a3bd 23da 74bc 5fdf 953d
000003b0: 901f 8bbd bcdb 403d 17b2 02bd 75b3 4d3d
000003c0: 2aa2 44bd 48dd 0b3c e3c4 ea3a 263f 463c
000003d0: 8216 7a3b 21eb 5d3d 3af9 4bbd 519b fcbc
000003e0: dae8 b8bd 3a78 9a3c 5d32 40bc 8eac 14bd
000003f0: 7114 263b 19c8 c639 89c5 acbd bf6e fc3c

bias_ih_l0 f4 [512]
0.009886889 0.024692612 -0.045032173 -0.010922861 -0.077909015 0.010375552 -0.02719389 0.04455864
-0.04927786 0.051010586 0.08152196 -0.053692188 0.040451035 0.0076509514 -0.08914084 -0.087867565
-0.061698392 -0.059655152 0.026070854 -0.04223973 -0.03517016 -0.072859734 0.02219727 0.08410698
-0.028995931 -0.037344493 -0.03300461 0.025891908 -0.04751944 0.054251775 -0.068162166 -0.052916054
0.0890407 0.010339026 0.023372313 -0.06644605 0.06409672 -0.079299994 0.0053726365 0.067966
0.015044118 -0.014857484 -0.03216739 0.06358628 0.054884996 0.022533994 -0.043897677 0.087106735
-0.07119529 -0.0637641 -0.076331355 0.07796183 -0.015067033 -0.05307802 0.07211155 0.0011012652
0.06999266 0.023047965 -0.00908132 0.01308381 -0.038843367 0.049510278 0.07560092 -0.08278406
-0.08727139 0.081696086 -0.05017572 0.0019034984 0.07584097 0.04162316 0.05853415 0.02360843
0.040875413 0.045133054 0.04029387 -0.040754516 -0.021373669 0.072274104 -0.009687926 0.082546785
-0.012759156 -0.06514011 0.06449443 -0.04818595 0.046754036 0.040831994 0.014149298 -0.07949951
-0.072080016 -0.0796793 0.09051027 0.00075871364 0.0031790454 -0.013820781 -0.038548823 0.02390719
-0.042513017 -0.0014265733 0.013148851 -0.052176785 0.084699064 -0.08685781 -0.005627963 0.012234263
0.023450669 0.047219988 0.008795869 0.09069796 0.04567879 0.014505679 -0.07885428 0.025072206
-0.047351956 0.022912977 0.070288576 0.0046044737 -0.0366359 -0.012673097 -0.039297696 0.05515597
0.039790697 0.006885973 -0.022450704 0.038030513 0.011759845 -0.035167456 -0.049794454 -0.023833005
0.04968509 0.067876846 -0.08269438 0.015632981 -0.017712722 0.06879852 -0.018695127 0.07110354
0.07437382 -0.038141023 -0.029220315 0.08102404 0.049200308 -0.07653044 -0.0035320325 0.075017154
-0.05784739 0.06662965 0.047013305 0.055260055 0.034259103 -0.023911657 0.066201694 -0.046555802
0.06644039 -0.031964634 -0.07368635 0.06344905 -0.03959912 -0.078142844 0.055971816 0.008725318
-0.047901604 -0.015331407 0.06515308 0.05993668 0.089678116 0.078566976 -0.014950123 -0.004331931
-0.074519604 -0.004994698 0.062288586 -0.004225079 -0.04262724 -0.0050029336 0.08504002 0.048651185
-0.0026211832 -0.03611 0.02673046 -0.049810365 -0.0012254817 -0.068067536 0.030994013 0.011142671
0.04591953 -0.0034274764 0.084739685 0.049052004 0.05262473 0.018671107 -0.088187985 0.061300624
-0.035308275 -0.067634225 0.005591919 0.040589042 -0.03752164 0.026895262 -0.059721336 0.008460531
-0.040392276 0.077643104 -0.071745485 0.045210958 0.0043470007 -0.05352999 -0.031912018 0.09154349
0.07674996 -0.049892496 0.0030399703 -0.009959432 0.09052517 0.01993712 0.08233516 -0.055359583
-0.036114536 -0.044504434 -0.0045008548 0.030166315 0.021662634 0.017946176 0.02872912 0.022500934
0.046362706 -0.01558771 0.041056328 0.08048481 -0.040666394 0.04860236 -0.07557237 0.015352398
-0.059283424 -0.063927606 0.027094606 0.061564784 -0.07447322 0.0069261533 0.041357405 -0.0019149418
-0.00089494 -0.05174322 -0.042457946 -0.07821939 0.002194879 -0.04972838 0.029755456 0.057202656
-0.051668026 0.047457263 0.059257086 0.05799192 -0.009955192 -0.0010319935 0.055035345 -0.035022333
00000000: 9efc 213c 2948 ca3c a873 38bd cdf5 32bc
00000010: c38e 9fbd 38fe 293c b9c5 debc 1f83 363d
00000020: 95d7 49bd 7af0 503d fcf4 a63d 57ec 5bbd
00000030: fcaf 253d d5b4 fa3b 798f b6bd e9f3 b3bd
00000040: 74b7 7cbd f658 74bd 8b92 d53c 9103 2dbd
00000050: 960e 10bd 7c37 95bd 0dd7 b53c 4840 ac3d
00000060: e088 edbc 8af6 18bd d82f 07bd 441b d43c
00000070: bfa3 42bd 1c37 5e3d 9b98 8bbd 81be 58bd
00000080: f85a b63d 0565 293c 4b77 bf3c de14 88bd
00000090: 2445 833d 0968 a2bd f10c b03b c231 8b3d
000000a0: 9b7b 763c ce6c 73bc f4c1 03bd 8639 823d
000000b0: 17cf 603d 3699 b83c 0dce 33bd 0465 b23d
000000c0: d6ce 91bd c196 82bd 9d53 9cbd 74aa 9f3d
000000d0: b7db 76bc 5768 59bd 38af 933d 5458 903a
000000e0: 5058 8f3d 16cf bc3c d1c9 14bc 7a5d 563c
000000f0: 391a 1fbd 4acb 4a3d a8d4 9a3d b08a a9bd
00000100: 58bb b2bd 4750 a73d 0e85 4dbd cf7e f93a
00000110: 8352 9b3d 0c7d 2a3d 81c1 6f3d 7766 c13c
00000120: fa6c 273d 70dd 383d 2f0b 253d 35ee 26bd
00000130: d517 afbc 7204 943d 1bba 1ebc 4a0e a93d
00000140: c70b 51bc 2e68 85bd a815 843d a15e 45bd
00000150: 2981 3f3d 733f 273d 75d2 673c a4d0 a2bd
00000160: b09e 93bd e72e a3bd 735d b93d 69e4 463a
00000170: 8857 503b 8f70 62bc 5fe5 1dbd 03d9 c33c
00000180: 2122 2ebd dbfb baba 476e 573c 53b7 55bd
00000190: b476 ad3d 82e2 b1bd c76a b8bb 3872 483c
000001a0: 9e1b c03c bf69 413d 8c1c 103c dabf b93d
000001b0: af19 3b3d 3aa9 6d3c 5a7e a1bd 3a64 cd3c
000001c0: 20f4 41bd ffb3 bb3c 75f3 8f3d 20e1 963b
000001d0: 870f 16bd d2a2 4fbc 9ff6 20bd 3aeb 613d
000001e0: 92fb 223d baa3 e13b 8aea b7bc e2c5 1b3d
000001f0: 5dac 403c c00b 10bd 45f5 4bbd 6f3d c3bc
00000200: 9882 4b3d 0403 8b3d ac5b a9bd bd10 803c
00000210: 451a 91bc 3de6 8c3d 8626 99bc bc9e 913d
00000220: 4d51 983d c339 1cbd 715f efbc efef a53d
00000230: 4386 493d febb 9cbd ac79 67bb 98a2 993d
00000240: 63f1 6cbd 2075 883d 0691 403d 5e58 623d
00000250: 4653 0c3d 61e2 c3bc c194 873d 4cb1 3ebd
00000260: e611 883d 59ed 02bd dee8 96bd 93f1 813d
00000270: b032 22bd 5b09 a0bd b442 653d a3f4 0e3c
00000280: 7934 44bd 9530 7bbc fa6e 853d 2a80 753d
00000290: 29a9 b73d b9e7 a03d 5cf1 74bc dff2 8dbb
000002a0: bc9d 98bd 90aa a3bb 5122 7f3d 8872 8abb
000002b0: e799 2ebd a6ef a3bb 7629 ae3d 7746 473d
000002c0: 28c8 2bbb 14e8 13bd d6f9 da3c f405 4cbd
000002d0: 58a0 a0ba fe66 8bbd 28e7 fd3c c08f 363c
000002e0: 1e16 3c3d 839f 60bb 008c ad3d c1ea 483d
000002f0: 078d 573d 26f4 983c e79b b4bd 5d16 7b3d
00000300: 699f 10bd d083 8abd 6b3c b73b b240 263d
00000310: 4bb0 19bd 7453 dc3c 5c9e 74bd 0a9e 0a3c
00000320: 5f72 25bd 5903 9f3d 4cef 92bd 202f 393d
00000330: 4971 8e3b 4342 5bbd 2db6 02bd 277b bb3d
00000340: 152f 9d3d 135c 4cbd 3d3a 473b e32c 23bc
00000350: 4365 b93d 2c53 a33c 569f a83d bbc0 62bd
00000360: d6ec 13bd 484a 36bd e87b 93bb 591f f73c
00000370: d675 b13c dc03 933c 5559 eb3c e153 b83c
00000380: d2e6 3d3d 9863 7fbc ae2a 283d 38d5 a43d
00000390: ce91 26bd 4513 473d b0c5 9abd a088 7b3c
000003a0: 2dd3 72bd 7aec 82bd 82f5 dd3c 5b2b 7c3d
000003b0: 6a85 98bd c9f4 e23b 6266 293d c9fe faba
000003c0: 689a 6aba b3f0 53bd 62e8 2dbd 7d31 a0bd
000003d0: f6d7 0f3b fcaf 4bbd b7c1 f33c 554d 6a3d
000003e0: daa1 53bd 8c62 423d 8fb7 723d ef88 6d3d
000003f0: 1a1b 23bc f543 87ba be6c 613d 9473 0fbd

bias_hh_l0 f4 [512]
0.023119083 -0.040212467 0.05830964 -0.008400028 0.08035097 -0.062870465 -0.08649619 -0.05017994
0.07054994 -0.054441515 -0.068768285 -0.036711216 0.05906508 0.031402282 0.053715423 -0.01929676
0.09100373 -0.0070808735 -0.04849767 -0.06476356 -0.054539632 0.07248062 -0.086383715 0.08534423
-0.023795594 0.08412832 -0.035900444 -0.027351495 0.05207841 0.074148335 0.07290517 0.019359387
-0.048775528 -0.007656597 0.008354912 0.084736936 -0.065418296 -0.047140587 0.06438623 -0.018394899
-0.03103212 0.00487646 -0.057924904 -0.019086488 0.043098256 -0.054691672 -0.045769256 0.024579005
-0.0029870528 -0.022959655 0.015435035 0.091271 -0.054295745 -0.032346636 -0.024392959 0.030465545
0.05716993 0.091156356 0.018961566 0.025627092 0.04391857 0.056302715 0.07952585 -0.05663714
-0.083112635 -0.039245177 -0.016579984 -0.07571617 0.0497576 -0.017430136 -0.006962723 -0.054246914
0.019596575 0.025654458 -0.028522098 0.026411226 -0.035003178 0.059308033 -0.056632124 0.08704585
0.09447631 -0.06264761 -0.028975802 -0.035328086 -0.030247264 0.044146888 -0.06620297 -0.051051207
0.06280676 -0.043653872 -0.037346978 0.019558903 -0.07721965 -0.03590228 0.035878394 -0.019104782
-0.074659325 0.06790703 -0.042200245 0.06547123 0.055707444 -0.07095752 -0.045935586 0.019740907
0.072148815 0.013702523 0.04157279 -0.009696644 0.08864876 0.019731347 0.050304916 -0.03978286
-0.06452663 0.025611253 -0.07389331 -0.0108819045 0.048313126 0.027890826 0.0058831447 0.0028678032
-0.06281387 -0.048888557 0.019697387 0.008407982 0.065155566 0.04122776 -0.055892818 -0.06423837
0.029735256 0.0026366953 0.0011451672 -0.017530141 0.014057883 0.07829914 0.05422055 0.033045556
-0.043102063 -0.05249967 -0.028229633 0.051855475 0.04954764 0.08038664 0.04581972 -0.013158279
0.08872625 -0.04613649 0.07296229 -0.0032338286 -0.010961299 0.010015054 -0.026914228 0.07083447
0.08200027 -0.057329617 0.020654682 -0.014391518 0.08784092 -0.037868693 0.0660998 -0.052000947
0.06883282 0.031656854 0.009570023 -0.009592397 0.09406771 -0.07295559 0.07798449 -0.054436974
0.043298595 -0.0025393371 0.002260387 0.06810306 0.051213097 -0.06317979 0.0028251552 -0.032605994
0.0769232 0.05949717 -0.047485035 0.07621907 -0.09269519 -0.077290505 0.02685207 0.008183744
-0.06949291 -0.040609844 0.010797648 0.0199185 0.011973016 -0.027032088 -0.07073051 -0.010210439
-0.06412047 -0.006961292 -0.025464255 0.08264439 0.078503616 -0.019880248 0.06739637 -0.090825744
0.0902556 -0.07561022 -0.033990756 -0.029893912 0.026274202 -0.045080066 0.013512072 0.07982646
0.06010354 0.083273605 -0.06263943 -0.039259437 0.0046295957 0.038141567 -0.044675846 0.09123132
-0.058878947 -0.039796665 0.077135645 0.04838034 0.017491963 -0.0019310965 -0.04715934 0.08202302
0.016290965 -0.011435635 0.06023469 -0.034016777 -0.04004389 0.051403333 -0.049286306 -0.080830365
-0.08406731 -0.018278368 0.06573456 0.08373623 0.0503831 -0.058850035 0.088488854 0.02384813
-0.0333155 -0.021201603 0.047223892 0.024972688 0.07918239 -0.016592192 0.08849026 -0.009950017
-0.07758581 0.033462454 -0.023594622 -0.008222704 0.016926385 0.055599555 0.0074462807 -0.07361293
00000000: 3b64 bd3c d4b5 24bd 17d6 6e3d 45a0 09bc
00000010: 0d8f a43d 3bc2 80bd ea24 b1bd 7b89 4dbd
00000020: 7d7c 903d 11fe 5ebd 63d6 8cbd 805e 16bd
00000030: 3aee 713d ae9f 003d b404 5c3d 3d14 9ebc
00000040: 2a60 ba3d ac06 e8bb 7ea5 46bd c2a2 84bd
00000050: f364 5fbd b870 943d f2e9 b0bd f5c8 ae3d
00000060: faee c2bc 784b ac3d 580c 13bd 3e10 e0bc
00000070: 2c50 553d 15db 973d 4e4f 953d 9497 9e3c
00000080: d9c8 47bd 31e4 fabb 0ae3 083c 8f8a ad3d
00000090: 07fa 85bd 7d16 41bd eedc 833d e6b0 96bc
000000a0: 1337 febc b6ca 9f3b aa42 6dbd 445b 9cbc
000000b0: cc87 303d 6004 60bd 8b78 3bbd e959 c93c
000000c0: 6ec2 43bb e315 bcbc 3be3 7c3c 4aec ba3d
000000d0: 3765 5ebd e87d 04bd bed3 c7bc e192 f93c
000000e0: 042b 6a3d 2fb0 ba3d 4955 9b3c e8ef d13c
000000f0: f5e3 333d ad9d 663d 73de a23d 59fc 67bd
00000100: f536 aabd 8dbf 20bd bfd2 87bc 1411 9bbd
00000110: a0ce 4b3d a5c9 8ebc 8e27 e4bb 0332 5ebd
00000120: ff88 a03c 4c29 d23c 2da7 e9bc 5b5c d83c
00000130: 7e5f 0fbd fbec 723d 16f7 67bd 1845 b23d
00000140: cc7c c13d 644d 80bd a95e edbc 2fb4 10bd
00000150: 1cc9 f7bc 5ed3 343d 6c95 87bd 121b 51bd
00000160: d5a0 803d 67ce 32bd 25f9 18bd fe39 a03c
00000170: 5625 9ebd 450e 13bd 39f5 123d a281 9cbc
00000180: fde6 98bd d712 8b3d 2ada 2cbd c815 863d
00000190: 7d2d 643d 2d52 91bd f426 3cbd afb7 a13c
000001a0: c2c2 933d 8c80 603c 3b48 2a3d acde 1ebc
000001b0: 7b8d b53d a2a3 a13c 870c 4e3d 5af3 22bd
000001c0: 8a26 84bd b1ce d13c 6055 97bd 044a 32bc
000001d0: fce3 453d 4d7b e43c 65c7 c03b c1f1 3b3b
000001e0: 8fa4 80bd 5e3f 48bd 6a5c a13c a2c1 093c
000001f0: 4870 853d 71de 283d deef 64bd 688f 83bd
00000200: 5a97 f33c 68cc 2c3b 6f19 963a 5f9b 8fbc
00000210: 0953 663c 4d5b a03d 5e16 5e3d c75a 073d
00000220: ca8b 30bd e509 57bd d541 e7bc 6866 543d
00000230: 77f2 4a3d c0a1 a43d 75ad 3b3d d295 57bc
00000240: 1cb6 b53d 9ef9 3cbd 416d 953d a4ee 53bb
00000250: 0597 33bc 2e16 243c 3a7b dcbc aa11 913d
00000260: c2ef a73d 76d2 6abd 0234 a93c 67ca 6bbc
00000270: f1e5 b33d 341c 1bbd 555f 873d f2fe 54bd
00000280: 39f8 8c3d 9eaa 013d 96cb 1c3c 6e29 1dbc
00000290: 92a6 c03d be69 95bd 55b6 9f3d 4ef9 5ebd
000002a0: de59 313d 026b 26bb 0023 143b 9e79 8b3d
000002b0: d3c4 513d 6864 81bd 3d26 393b dd8d 05bd
000002c0: e989 9d3d 4eb3 733d ab7f 42bd be18 9c3d
000002d0: fad6 bdbd 7c4a 9ebd dff8 db3c 1c15 063c
000002e0: 4c52 8ebd 8256 26bd 9ee8 303c 1f2c a33c
000002f0: 782a 443c 6672 ddbc 28db 90bd af49 27bc
00000300: 9851 83bd 8d1b e4bb 6a9a d0bc 7641 a93d
00000310: 81c6 a03d e7db a2bc 1c07 8a3d d902 babd
00000320: eed7 b83d 88d9 9abd e439 0bbd 14e4 f4bc
00000330: ff3c d73c e0a5 38bd bd61 5d3c 0e7c a33d
00000340: 212f 763d 5a8b aa3d 1a49 80bd 81ce 20bd
00000350: ddb3 973b 553a 1c3d 05fe 36bd 7cd7 ba3d
00000360: 0d2b 71bd d401 23bd 4bf9 9d3d 772a 463d
00000370: 4e4b 8f3c d91c fdba 272a 41bd affb a73d
00000380: a174 853c 885c 3bbc a6b8 763d 2d55 0bbd
00000390: 1005 24bd 4d8c 523d 70e0 49bd 648a a5bd
000003a0: 7b2b acbd 84bc 95bc d79f 863d e77d ab3d
000003b0: 825e 4e3d bc0c 71bd a539 b53d 275d c33c
000003c0: d575 08bd fcae adbc d76d 413d 8693 cc3c
000003d0: 602a a23d 59ec 87bc 623a b53d 6505 23bc
000003e0: 4fe5 9ebd ed0f 093d 8249 c1bc 85b8 06bc
000003f0: 34a9 8a3c 5cbc 633d eeff f33b 60c2 96bd

weight f4 [1, 128]
-0.06932911 -0.029542949 0.07347225 0.014546486 0.0031623368 -0.019924287 0.062496133 0.06339113
-0.0029691393 -0.04044828 -0.057968315 -0.057574935 0.027986933 0.08492016 -0.0387438 -0.02717351
-0.054177362 0.045571882 0.059671924 -0.06253013 0.058409747 -0.07460249 -0.04791434 -0.03715947
-0.021167114 -0.008292311 0.017804183 -0.08852159 -0.09409352 -0.004044944 0.00872993 0.06539258
0.0040197307 0.08233268 -0.08582581 -0.033339277 0.084142566 0.016798312 -0.038767226 -0.0216996
0.08330247 -0.029805703 0.014119021 0.036482967 0.044248607 -0.089406535 0.012705909 0.02110258
0.06859959 0.049649958 0.018841615 -0.02965341 0.062901035 0.014273856 -0.0025767114 -0.008941226
0.08557999 0.055705126 0.030399036 0.023963764 0.010729859 -0.053067237 0.033916064 0.009195019
-0.07027949 0.078283325 0.036845505 -0.09305863 -0.04811111 -0.023322713 0.0027154502 -0.079666555
0.06515491 0.07490964 0.026706776 -0.074910626 0.08359679 -0.052034125 -0.022482082 0.077703014
-0.03790874 -0.038130354 -0.040621374 0.084818244 0.089399986 0.0132959355 -0.04434126 -0.011039886
-0.043093584 0.026417991 -0.09177229 -0.059966285 -0.014604677 0.045056026 -0.019899435 -0.08766288
0.035054117 0.0053765993 0.028601589 0.039667547 -0.01506348 0.048825596 0.043744463 0.036864944
-0.013018157 0.0521525 0.0094509125 0.018428462 0.040115353 -0.0882705 -0.071061574 -0.046991598
0.00842053 -0.08904076 -0.024766065 0.062873 -0.0687765 -0.051279943 0.012842732 -0.089161694
-0.07803209 0.052855756 0.07612349 0.064724006 0.072092555 0.015099602 -0.08553552 0.06634559
00000000: 6cfc 8dbd 0e04 f2bc 9e78 963d 6254 6e3c
00000010: 353f 4f3b 4238 a3bc f2fb 7f3d 35d3 813d
00000020: e495 42bb 18ad 25bd 2f70 6dbd b2d3 6bbd
00000030: da44 e53c 9fea ad3d d2b1 1ebd fb9a debc
00000040: 15e9 5dbd 95a9 3a3d 8c6a 743d cc0f 80bd
00000050: 0f3f 6f3d 31c9 98bd d441 44bd 8734 18bd
00000060: a866 adbc 79dc 07bc 14da 913c cf4a b5bd
00000070: 1ab4 c0bd 738b 84bb fb07 0f3c 8cec 853d
00000080: f2b7 833b 099e a83d 71c5 afbd c48e 08bd
00000090: f052 ac3d 9d9c 893c 62ca 1ebd 5cc3 b1bc
000000a0: 7c9a aa3d 172b f4bc 7753 673c 2a6f 153d
000000b0: 073e 353d c61a b7bd 722c 503c 51df ac3c
000000c0: f17d 8c3d c15d 4b3d bb59 9a3c b5eb f2bc
000000d0: 42d2 803d e4dc 693c 0bde 28bb 387e 12bc
000000e0: 9044 af3d 0f2b 643d 6607 f93c a84f c43c
000000f0: 4acc 2f3c 085d 59bd 92eb 0a3d b4a6 163c
00000100: b1ee 8fbd 0253 a03d 50eb 163d 8695 bebd
00000110: 2810 45bd 460f bfbc b2f5 313b 3828 a3bd
00000120: f06f 853d 3a6a 993d 2bc8 da3c be6a 99bd
00000130: cb34 ab3d bc21 55bd 582c b8bc c222 9f3d
00000140: 3246 1bbd 932e 1cbd 9962 26bd 30b5 ad3d
00000150: 5717 b73d 32d7 593c 2e9f 35bd a3e0 34bc
00000160: e682 30bd 8b6a d83c 1cf3 bbbd 359f 75bd
00000170: 7548 6fbc ab8c 383d 2404 a3bc 9988 b3bd
00000180: e894 0f3d 2f2e b03b e14d ea3c 707a 223d
00000190: d0cc 76bc 59fd 473d 652d 333d b2ff 163d
000001a0: 1c4a 55bc dc9d 553d 00d8 1a3c 49f7 963c
000001b0: ff4f 243d 2ac7 b4bd bb88 91bd 437a 40bd
000001c0: 43f6 093c 015b b6bd 34e2 cabc 8fc3 803d
000001d0: b2da 8cbd eb0a 52bd 526a 523c 689a b6bd
000001e0: 4acf 9fbd 477f 583d a2e6 9b3d 058e 843d
000001f0: 43a5 933d 5264 773c 3f2d afbd 32e0 873d
